model/ECGNet_weightedLoss.pth (torch, 308767 bytes, 18 tensors)

features.0.weight f4 [8, 1, 16]
00000000: 6af9 163e 46f5 853c 0c48 d83b 3477 e13d
00000010: 9d73 f2bd 1766 213e 0ff5 6dbe 7a5d f8bd
00000020: aeb8 0abe 29ed 40be 2fa3 8fbe 1885 c4bd
00000030: 281e 0a3e da06 823e e1c9 8a3e 29b3 763e
00000040: 54e0 e6bc 6ee2 223d 8521 84be e87a 42be
00000050: 8373 6cbe 38f6 2d3d 29ff 82be de42 833c
00000060: 9d3c f9b9 efa4 5abc d7e1 9bbc ef4b d73b
00000070: 73a3 ae3d 47f6 75bd a70c 373e 8fa1 973e
00000080: db24 b03e 876f 1f3e e4f4 243e 545b 8b3d
00000090: 4eee a03c c472 3d3d 0b9f 203e a677 7d3d
000000a0: f5e5 9a3e d27d 13bd efa7 6fbe 7660 5dbe
000000b0: d989 aebe ea2e 5dbe 2e64 7fbd 28c9 fdbd
000000c0: 7998 1a3e 6297 62bd d1e2 acbd d809 29bc
000000d0: 0eba cdbd 055a b13e c840 debc 957d 0b3e
000000e0: 9f6a 9c3e a304 673e 90a1 b3bd 5a24 373d
000000f0: 5da8 9d3c 3308 643e 24b6 813e a26a 7a3e
00000100: 31cf 92bd 9061 9abe 93ce 233c 40ed 2b3e
00000110: 06b0 643e 0d19 643e 6a01 eb3d 2b74 573e
00000120: 998d d9bd a8ca a2be b29d 5cbd e653 62be
00000130: 5712 be3c 6b9d debd efc1 da3d 28dc ba3d
00000140: 15ff 4bbe 1f62 dcbd 98bc 803e abf9 333e
00000150: 2d9b 7bbe ddb8 df3c 755c 9b3d 8152 5a3e
00000160: 9860 bd3d baca 6abc a813 b8bd c53c 253d
00000170: 6347 513e e2cf e53d cdb6 90bb f732 023e
00000180: c512 9f3d 3814 65be 3676 fdbd 2760 15be
00000190: bbd4 233d 0061 543d d2b6 443c 502b bcbe
000001a0: 3ec0 bebe b45a 8bbe 0b18 a6be b163 813d
000001b0: ae9b 5bbe f120 223e 0c35 9f3d 3a77 bbbe
000001c0: fce0 88bd 6c5d 023e 1562 1a3e 45df 87bd
000001d0: c8be 3c3e 7cd5 453e 76c6 db3d a2a0 0fbe
000001e0: d270 46bd 0aaf 15be ace1 1e3e e528 6a3b
000001f0: de09 acbd dfd3 07bd 2f79 e2bd 3876 11be
0.14743581 0.016352307 0.0066003855 0.11009064 -0.11838458 0.157616 -0.23238014 -0.12127204
-0.13547012 -0.1884047 -0.28054187 -0.09595698 0.13488066 0.25395852 0.27107146 0.24091782
-0.02818314 0.03976672 -0.25806823 -0.18992198 -0.23090939 0.04247114 -0.25585297 0.016023096
-0.0004753814 -0.013344987 -0.019028587 0.0065703313 0.08527269 -0.06004932 0.1787592 0.29615447
0.34403118 0.15569888 0.16109043 0.06804529 0.019644883 0.046252027 0.1568567 0.061881684
0.30253568 -0.036008663 -0.23403905 -0.21618828 -0.34089544 -0.21599928 -0.0623514 -0.12391883
0.15097226 -0.05532015 -0.08441699 -0.010317288 -0.10045253 0.34638992 -0.0271305 0.13622124
0.30550095 0.22560363 -0.0877105 0.044712402 0.01924532 0.22268753 0.25334275 0.2445474
-0.07168425 -0.3015256 0.009997982 0.16789722 0.22332773 0.22275181 0.11474879 0.21040408
-0.10622711 -0.3179524 -0.053861327 -0.22102317 0.023202104 -0.10869869 0.10681521 0.09124023
-0.19921525 -0.107609026 0.25143886 0.1757571 -0.24570914 0.02730983 0.07585994 0.21320535
0.092469394 -0.01433056 -0.08988124 0.040341157 0.20437388 0.11221291 -0.004416323 0.12714754
0.07767252 -0.22370994 -0.123760626 -0.1458746 0.039997797 0.05185032 0.012006478 -0.36751795
-0.37256044 -0.27217638 -0.32440218 0.06317843 -0.21446106 0.15832879 0.0777379 -0.366144
-0.06683537 0.1273095 0.15076478 -0.06634382 0.18432152 0.19319719 0.10731213 -0.1402612
-0.048447438 -0.14617553 0.15515774 0.0035729941 -0.084003195 -0.03316104 -0.1105827 -0.14205253

features.0.bias f4 [8]
00000000: dadc 75bd 6664 94be 492d 0b3d d61d bd3d
00000010: f217 263d 6ec1 2cbe 9a7e fabd 15b2 6a3d
-0.060025074 -0.28982848 0.033978734 0.092342064 0.04055018 -0.16870663 -0.122311786 0.05729874

features.3.weight f4 [12, 8, 12]
00000000: a44c 193d 0c8c 373e 3dfe 233e c4cb b13c
00000010: 2e75 72be b444 90bd c1e6 013d 06a9 77bc
00000020: 7543 373a dfb2 48be 7b19 4fbd 7543 97bd
00000030: 0fdc 873e ac52 2e3e 2cdc 6d3d d897 4ebe
00000040: d51f 80be 0866 53be e1e4 1ebe 64bc 58be
00000050: eefc a2be cd75 45be d14a 01bd 5fba 903c
00000060: caf0 a0bc 1472 123e ecb2 b9bc 6863 bd3d
00000070: 4f4a b13d d748 c6be 23da efbe 41f2 92be
00000080: 3711 dbbe af71 423d d614 203e 2a72 45bc
00000090: a44d fbbd 6a90 5bbd a624 a83d 3ed6 4ebd
000000a0: 56fc d4ba 07f4 44be de25 53bd 6b54 b33c
000000b0: ee01 cd3c eb05 3d3d 9fe2 8dbd f876 89bd
000000c0: a038 38be 16d5 023e 640c 283e bdbb d53d
000000d0: fcf4 c13c 72bf 0ebe a848 c4bd 0853 1cbd
000000e0: 51fd 763d 29f8 0b3e 6841 2dbb 33c9 b1bd
000000f0: c607 19bc cece 4c3c 1880 aa3d de69 a23c
00000100: 3b00 963d 1e9c 38be c7e6 35bd 62f4 623d
00000110: 529b 973c 4e18 ebbc 5a8b 94bd 8743 5cbe
00000120: 0166 923e 80ea 693c e2e1 ab3d f9c2 acbd
00000130: ee37 10be 332a 8cbd 915e 35be 17be bbbd
00000140: ab51 debc d609 20be c230 d1bc 94ed e43d
00000150: 4df8 9abd da9d 21bd 84d1 b63d 3422 1e3e
00000160: 6e87 a5ba 3fa9 9ebe 1b14 46be 0316 e73b
00000170: 0297 e9bd 2f01 053e dba8 2dbd 2fa4 fa3c
00000180: 7361 fcbc e105 5dbd 5052 f8bd 6f20 623e
00000190: 1e7e 723e e055 173e c608 44bd 0792 a43a
000001a0: 91ed 66be 071b b73c 0b1c a6be c28b 26bd
000001b0: 60ff f0bd a841 7e3d 387c a3bd 6702 1c3e
000001c0: d09a d83d e45c 013e b131 1b3c 7d24 39bb
000001d0: 375f 1abc 6cd4 093d df43 c1be 0668 9dbd
000001e0: c4b0 60be 601a 3e3e 3f97 de3d 524a 0cbe
000001f0: 02ce 6cbd 5095 2c3e f6d6 0a3e d73d 2dbd
00000200: 8fdc eabc bb44 0fbd 501b d33b 7ae2 f2bd
00000210: 9497 853d 7f7c 853a e2d9 4cbe 49ab 22bd
00000220: c646 e43d 965d 083d 6b47 87bd 9516 98bd
00000230: 9247 623d 9097 11bb dc56 4dbc 88da 153d
00000240: 9ef2 45bd 03b6 a7bb 52a8 123e 5c61 d2bc
00000250: e5e7 793d 442a 5f3e c100 0e3e a739 15be
00000260: 143a 02bd 7cef 1ebe 44d3 a53c 90b9 17be
00000270: 1763 b13d b2ad 613d b161 6fbe 0b63 69be
00000280: 2495 573d fabc bcbb ff4b b7bd dd57 84bd
00000290: c6b6 5c3c c3d7 61bc 5e22 8bbd dd61 9abc
000002a0: 3517 63be 089a 683b a420 cf3d 0824 0abe
000002b0: 6ed2 25be 4e51 c9bd 588b 9b3d 59dc 7e3e
000002c0: 2359 bc3d 1f76 8b3d 2ab2 dfbb de94 e2bd
000002d0: 8daa 97bc ac47 383e c68e 703d 665a 90bd
000002e0: f968 8c3d 16b4 d33d b300 d83d 4a88 96bd
000002f0: 37df 49be cb20 f3bc 6c7d c83d 94d2 3e3e
00000300: 4b45 c93c 47cb 86be 3883 bebd 9429 86bd
00000310: a19d bdba 436b 253e 12ff 4b3d 13a2 8f3d
00000320: 9eb0 b93c e8d9 3cbd 58c7 59bd 832f 4d3d
00000330: c1af 613d 69a6 61be c000 dd3b 1229 a2bd
00000340: c0fb 2f3e bcb6 c53d 5c5a d63d 301f 923e
00000350: 0c68 0e3d a519 813d fdc4 8cbe 836e 08be
00000360: 0940 cfbd a45b 293c da2c 0a3c f5fc 8cbc
00000370: 7324 303e e836 07bd 8e47 913d 2739 b73d
00000380: edf9 76be 6175 d4bd a85c 823c 5979 f1bd
00000390: 8494 eb3d 1f0e a03c 6cab c83b 08ab 563c
000003a0: 9cd3 1cbe 0751 f9bd 8874 01bc 941f a5bd
000003b0: 5828 003d bcdd 713e bfcc 123e 8d14 103e
000003c0: fd9c b93d b465 10bd 5a8b 48bd e297 c8bc
000003d0: dc6a 04be 75e2 e6bd b19b 84be 0337 3bbe
000003e0: 3a87 80be 07e0 cdbd 33d9 2bbd fc89 e2bc
000003f0: 79ad c03d 5071 8c3d f999 80bd 1e64 29bd
0.037426606 0.17924517 0.16014953 0.021703608 -0.23677513 -0.07044354 0.031714205 -0.015115982
0.0006990948 -0.19599484 -0.05056141 -0.07385913 0.2653508 0.17023724 0.0580713 -0.20175111
-0.25024286 -0.2064439 -0.15516998 -0.21165615 -0.31833595 -0.19283219 -0.03156549 0.017666994
-0.019646067 0.1430133 -0.022668324 0.09247476 0.08656751 -0.38727447 -0.46846113 -0.2870045
-0.4278657 0.0474717 0.15632948 -0.012051145 -0.12270668 -0.05360452 0.08210115 -0.050497286
-0.0016249518 -0.19233714 -0.051549785 0.02189084 0.025025334 0.046148222 -0.0692799 -0.067121446
-0.1799035 0.12776598 0.16410977 0.10436199 0.023676388 -0.13940218 -0.095841706 -0.038165122
0.060300175 0.13668884 -0.002643669 -0.08680954 -0.009340232 0.012500478 0.08325213 0.019825872
0.07324263 -0.18028304 -0.04440954 0.055408843 0.01850668 -0.028698113 -0.07253142 -0.21510135
0.28593448 0.014277101 0.08392693 -0.084356256 -0.14083835 -0.06843986 -0.17711855 -0.09167116
-0.027138552 -0.15628752 -0.025535945 0.11178127 -0.07566891 -0.03945718 0.08926681 0.15442735
-0.0012628862 -0.309885 -0.19343607 0.0070521845 -0.114057556 0.12988733 -0.04239736 0.030595867
-0.030808186 -0.053960685 -0.12125075 0.22082685 0.23680922 0.14778852 -0.04785993 0.0012555727
-0.22551562 0.022351755 -0.3244327 -0.040660627 -0.11767459 0.062074333 -0.07982677 0.15235291
0.10576403 0.12633091 0.009472297 -0.0028250508 -0.009422115 0.033649847 -0.37747094 -0.076858565
-0.2194243 0.18564749 0.10868692 -0.13700226 -0.05781365 0.16853833 0.13558564 -0.042295303
-0.028669624 -0.034977656 0.006442465 -0.11859603 0.06523052 0.0010184197 -0.2000499 -0.03971413
0.111463115 0.033292376 -0.06605419 -0.07426182 0.055244036 -0.0022215582 -0.012532916 0.03658536
-0.04832708 -0.005118133 0.14322022 -0.02568119 0.061012167 0.21793467 0.13867475 -0.14572774
-0.03179367 -0.15521044 0.02024234 -0.1481688 0.08661478 0.05509729 -0.2337711 -0.22791688
0.052632466 -0.0057598324 -0.08950042 -0.06462071 0.013471311 -0.013784352 -0.067936644 -0.018845493
-0.22176822 0.00354922 0.101136476 -0.13490307 -0.16193554 -0.09829961 0.07594937 0.24888743
0.09196689 0.06809639 -0.0068266587 -0.110635504 -0.018513942 0.1799609 0.05872991 -0.07048492
0.068559594 0.10337083 0.10547008 -0.07350214 -0.19714056 -0.029678723 0.09789547 0.18635017
0.024569174 -0.26326963 -0.09302372 -0.06550899 -0.0014466533 0.16154198 0.0498038 0.07013335
0.022667225 -0.04610625 -0.053168625 0.05009414 0.055099253 -0.22036137 0.006744474 -0.0791799
0.17185879 0.096539944 0.104664534 0.2853942 0.034767196 0.063037194 -0.2749404 -0.13323407
-0.101196356 0.01033679 0.008433545 -0.017210463 0.17201404 -0.033011347 0.07093726 0.08946448
-0.24118777 -0.10373951 0.015913323 -0.11790723 0.115029365 0.019537983 0.0061239507 0.0131023
-0.15315098 -0.12173658 -0.007901318 -0.08062664 0.031288475 0.23619741 0.14335917 0.1407034
0.09063146 -0.03525324 -0.04896102 -0.024486486 -0.12931389 -0.11273662 -0.25900033 -0.18282704
-0.2510317 -0.100524954 -0.041955184 -0.027653687 0.09408087 0.0685755 -0.06279368 -0.041355245

features.3.bias f4 [12]
00000000: 750b 453d bcfd 193d 27df 96be bc30 cd3d
00000010: 2b52 61bd fd3b 673c b9ff 883e de96 82be
00000020: 494c 7c3d 4b60 57bd 8488 923c b40c 47be
0.04810663 0.037595496 -0.29467127 0.10019061 -0.055010002 0.014113423 0.267576 -0.25505728
0.06159619 -0.052582067 0.017887361 -0.1943844

features.6.weight f4 [32, 12, 9]
00000000: 7977 483c 4170 0cbd 62f0 153d dfa4 81bd
00000010: e490 f7bd 05e6 7dbe 3884 003d 4340 b73c
00000020: 2887 97be 47cb cbbd e8a2 04be 2421 053e
00000030: 1a49 d33d 6362 b9bd 69b7 30bd 4982 79be
00000040: 0418 24be 8a76 d73c 1236 543d 3674 5e3e
00000050: e066 d53b 9aad 8b3d 6d85 d63d b23d 5dbd
00000060: 2641 c53d d7b2 c53d 198b 01be 0759 3fbe
00000070: 0f95 cabc 21f8 963d aa06 96bc ae66 853d
00000080: d05e 19be 1b12 9fbd 8b52 36bd e781 b53d
00000090: 9c94 87bc 75f6 bdbd 233f 363c bd0f afbc
000000a0: b4ac 2f3d 77e2 f3bd 7fa2 cbbd 05eb 6fbe
000000b0: 19c4 bbbd f435 91bd 4a08 883d c14e 013e
000000c0: 4fc5 babc b46d 97bd 1a3e ccbd 3362 64be
000000d0: 6b85 263d 925a 013e 6186 d83d 085b 33be
000000e0: 8ffc 46be d88a bfbc 9e30 183d 85f0 583e
000000f0: 3549 313e 47a2 7cbe 5905 e5bd 6362 313e
00000100: 0b1b cb3c 578e b8bd bd2a 973d 942f b93c
00000110: aa58 31be e6a4 243b a18d 46bd a6b5 3abc
00000120: 5d2c 863d 6232 5c3d 9fc4 173e f6be a2bd
00000130: b953 c93c 7a75 8f3e f5ec b4bb 9fd0 22be
00000140: 0113 3a3c c31e 12be 062d f7bd 372f 99bb
00000150: 3619 0cbd 9519 58be 01f2 d8bd f7c2 6dbe
00000160: 6876 3b3b 99ff e73d 784e 373e 7622 05bd
00000170: 7d65 813c df52 abbd c9df c43c ddda 1f3d
00000180: 64f7 23bb 40fa 43be 234a 1c3e 01c5 063d
00000190: 5037 25be e9f1 5abc eb3e 7c3d 1ff3 04be
000001a0: 074b 03bf b2e0 a5be bb41 89be b138 5a3d
000001b0: 05e5 063d 86d1 77bd cf3b 49be 76cd d2bc
000001c0: b847 d3bd c1e8 aa3d f3a1 393d 9c2f 67bd
000001d0: 80ac f3bd 3e18 b4bd 71b3 49be 6ffc 8fbe
000001e0: 8db8 4fbe cd2c 033e 46b4 073e 1363 32be
000001f0: 6f4f ecbd a35e c1be 2f4c 5bbe e9b6 5e3d
00000200: 3db8 08be f37b 8d3d 66f2 c3bc 4135 9abd
00000210: f353 edbc c865 35be 92a6 b3bc 146a 82be
00000220: d10b 48bc 8373 b93d 2da2 3cbd 2f0a 98bc
00000230: 3181 583d 05e8 ce3d 72f4 c93c 6acf 403e
00000240: 14af fabd 660e 2f3e 4e39 eebd eae9 65be
00000250: 518f 1ebe bbc7 a23d 2417 2e3c 7c0e d6bb
00000260: 8aa8 52be 31f7 c0bd 71e3 5dbe f6f7 b8bb
00000270: 954d ff3d b827 92bd 878b aa3d 3821 b1bd
00000280: 5bdb 61bd d961 1e3e 8b4b 5bbe a03f 09be
00000290: 1734 ddbd 1905 523e 534b 5b3c 4b00 18be
000002a0: acf3 acbe 0b24 84be 7a39 72bd 4b84 ba3d
000002b0: e93f 8fbd a50a eabc 9237 6c3d 7fdb 11bb
000002c0: 2071 513e ff00 393e 55f0 013e 594e 893c
000002d0: 205a 75be cd52 7cbe 55ac 403e 8435 323e
000002e0: 57fe 28be 16f7 24bf 7d12 0fbe 0aae 223e
000002f0: d0a3 863e d6c8 a2bc b429 b03d d9a9 813e
00000300: bf69 1cbb 45a1 b43d d01d 943c ddcc 403e
00000310: 2eaf af3e 1af6 7ebc a484 90bd 6ce1 85bd
00000320: 34c1 47be b1b7 77be dca7 af3d 3a1e 153d
00000330: d3fc 123d c662 d3bc 816b a9bd 7c08 12be
00000340: 582c bdbd 6589 88bd b5fd a23d 70eb b0bd
00000350: 8e44 66bc c5d3 5cbd d303 12bd bbbd d93c
00000360: 435d 81bd 9dde 6dbd c79f c1bd 47e0 c23c
00000370: 8fa1 cfbb 31da 5bbd 510a f33d dbab d93d
00000380: 7076 aebe 8af9 d73d 93f0 773c 71cd d0be
00000390: d95e 7fbe 07dd babe 9ff7 a73d 3cc8 e83c
000003a0: 9899 eebd cc5e 6bbe 98cd 273e 78fa c5bc
000003b0: 928c 3abe f473 1e3e 3642 e63d d6a5 7a3d
000003c0: c1c1 93bd 02a1 50bb 86c5 a63d f2cb b7bd
000003d0: a6b8 883c aacf 88bc 3f60 0a3e 0657 53be
000003e0: 1320 3dbe eba3 813c 8b21 8c3d 061d 81bd
000003f0: c68c 803d 4438 533d 5f7d 9c3c 5967 c5bd
0.012235516 -0.03428674 0.0366062 -0.06330275 -0.120881826 -0.24794777 0.031376094 0.02236951
-0.29595304 -0.099508815 -0.12952769 0.13000923 0.103166774 -0.09051969 -0.043143664 -0.24366106
-0.16024786 0.026301641 0.051809378 0.21724018 0.006512508 0.06820221 0.10474668 -0.054013915
0.09631567 0.096532516 -0.12650718 -0.18686305 -0.02472928 0.073715456 -0.018313725 0.06513725
-0.14977574 -0.07767125 -0.044512313 0.088626675 -0.016550355 -0.092755236 0.011123451 -0.02136981
0.042889312 -0.11908429 -0.09943103 -0.23429497 -0.09168262 -0.07090369 0.06642206 0.12627698
-0.022799162 -0.07393971 -0.099727824 -0.22303085 0.04065458 0.12632206 0.10572506 -0.17515194
-0.19432281 -0.023381636 0.03715574 0.21185501 0.17313083 -0.24671279 -0.111826606 0.17322688
0.024793169 -0.09011524 0.073811986 0.022605695 -0.17318979 0.0025122701 -0.04847491 -0.011395847
0.065514304 0.053758986 0.14821099 -0.07946579 0.024576055 0.28019315 -0.0055214115 -0.15899895
0.01135707 -0.14269547 -0.120691344 -0.004674818 -0.03420373 -0.21103509 -0.105930336 -0.23218904
0.0028604511 0.11328048 0.17901027 -0.032503568 0.015795464 -0.08365416 0.02403249 0.039027084
-0.0025019282 -0.19138432 0.15262656 0.03290272 -0.16134381 -0.01336334 0.06158344 -0.12983368
-0.5128636 -0.3239799 -0.2680796 0.05327672 0.032933254 -0.06050255 -0.19651721 -0.025732737
-0.10316414 0.083451755 0.045320462 -0.05644189 -0.11898136 -0.08793686 -0.19697358 -0.2812228
-0.20285244 0.12810059 0.13252363 -0.17420606 -0.11538588 -0.37767515 -0.2141578 0.054373655
-0.13351531 0.06908407 -0.023919296 -0.075296886 -0.028970694 -0.17714608 -0.021930013 -0.25471556
-0.0122098485 0.09055235 -0.0460531 -0.018559543 0.05285758 0.10102848 0.024652693 0.18829122
-0.12240425 0.17095336 -0.11632024 -0.22452512 -0.15484358 0.07948252 0.010625634 -0.0065324884
-0.20572105 -0.09422148 -0.21668793 -0.0056447936 0.124659695 -0.07136482 0.08327394 -0.08648914
-0.055140834 0.15467013 -0.21415536 -0.13403177 -0.10800951 0.20509757 0.013384658 -0.14843862
-0.33779657 -0.2580875 -0.059136845 0.09107264 -0.06994612 -0.028569529 0.057670183 -0.0022256074
0.2045331 0.18066786 0.12689336 0.016760992 -0.23960161 -0.24640961 0.1881574 0.17403227
-0.16503273 -0.64439523 -0.13971896 0.15886703 0.26296854 -0.019871157 0.08601704 0.25324896
-0.002386674 0.08819822 0.018080622 0.18828149 0.3431334 -0.015561605 -0.07056549 -0.065371364
-0.19507295 -0.24191166 0.085769385 0.03640578 0.035885643 -0.025803935 -0.08272458 -0.14261049
-0.092369735 -0.06666831 0.07958547 -0.08638656 -0.014054431 -0.053912897 -0.03564818 0.026579728
-0.063166164 -0.05807363 -0.09454303 0.023788584 -0.006336398 -0.05367488 0.11867202 0.10628482
-0.34074736 0.10545643 0.015133041 -0.4078174 -0.24938525 -0.36496755 0.08201527 0.028415792
-0.116503894 -0.22985381 0.16387022 -0.024167284 -0.18217686 0.1547392 0.112430975 0.06119331
-0.0721469 -0.003183425 0.08143143 -0.08974446 0.01668961 -0.016700584 0.13513277 -0.20638666
-0.18469267 0.015825232 0.06842335 -0.06304364 0.062768504 0.05156733 0.01910275 -0.096388526

features.6.bias f4 [32]
00000000: bbd1 383d 514a 1cbe a3fc 70bd 608e 63bd
00000010: f72e 62bd 9e69 a9bd 6b03 b13c 97bd 02be
00000020: a6f5 d93b 873d 37bc afe2 f03d 560f 123d
00000030: cc64 29be 7ab2 813d 1fbb 62be fa13 c9bd
00000040: 09e7 423e 606e 593d 01e2 d63d 2d2f b8be
00000050: e2e1 703c 0a5e 1f3e 1a36 4ebe fb4e dc3d
00000060: b5b5 873d edb8 cb3d 99b9 a13d 3d69 d1bd
00000070: 6058 ff3d 4adb 073e 8ef2 ffbb 9b71 0e3d
0.04512189 -0.15262724 -0.058834683 -0.0555557 -0.05522057 -0.08272098 0.021608075 -0.12767635
0.006651598 -0.011184103 0.117619865 0.035659157 -0.16542357 0.0633287 -0.22141694 -0.09818263
0.19033445 0.053083777 0.104923256 -0.35973492 0.014702292 0.15563217 -0.20137826 0.10757252
0.06626455 0.09947381 0.07896728 -0.10225151 0.12468028 0.13267246 -0.007810897 0.03477631

features.9.weight f4 [64, 32, 7]
00000000: 5709 13be e2b9 94bd db0b 883d 901e acbd
00000010: ca75 0b3d e0cf 0b3e b77e f53d f8f1 44bd
00000020: 794f a6bd 9cca 89bd e910 d13b 861e b2bc
00000030: 1877 a73b 5717 e5bd e920 dcbd 036a 78bd
00000040: 1ed4 dfbd a13c c8bb 0f96 73bc ee26 6dbd
00000050: 176f eebd 5e0c 8d3d bbe1 72bd cb3e 8ebd
00000060: 8813 273e a3a3 643e 135e 493e dfb2 fabd
00000070: ebc5 b0be 970b 83be 3a91 3cbe 9604 a3bd
00000080: 1592 b23d d292 853d 924a 1f3e 22c8 11bd
00000090: a921 90be c329 72be f34d dcbd 27fa 21be
000000a0: 87e9 c3bd 2c2a 02be 0071 883d 1968 883d
000000b0: fd82 08bd 75be 153e adad 353b 9c6b 0a3d
000000c0: 2e00 9fbd 0936 d2bc 3482 f03c 104d 533e
000000d0: de6b 823d 1b56 e13d 9bae e93d 226a 8e3d
000000e0: 8424 c5bd 5366 9abc d6f6 473e 50d7 713e
000000f0: b440 c73d 41b7 553e c7a8 0d3e ba0c ef3d
00000100: 8d59 f3bd a591 7abe fb8b 31be a741 91be
00000110: eac4 11bd e226 e13d c4f6 fcbc 1c33 e33d
00000120: daa6 203e 047f 83bc 8bd8 acbd 8af2 8bbe
00000130: 6375 9fbd 1663 bb3d eb63 03be 94c6 11be
00000140: 7aa0 15be d39f 03be ddb7 4abe 32a2 40be
00000150: ad60 8c3e a6f7 273d e287 c0be f0b8 973d
00000160: b3e6 b33d bbe5 1e3d b656 253e 0d0d 8f3d
00000170: 6496 b1bd dc59 91be 8462 2e3d 8b8b 233d
00000180: ca09 093e aa8e c0bd 865d 27be 9c7a 48be
00000190: 9774 fcbd d4a0 71be 79e0 8c3d c4c9 023e
000001a0: b2f4 0dbd 2387 81be 7d60 04bd 97af 6bbd
000001b0: 41bf 8abd 1e46 e7bc bf69 95bd 07fc d5be
000001c0: 0077 cd3d e58a 293d 4b63 3ebd 53af 603d
000001d0: 2091 5b3d 58d2 e23d 72f5 3a3e 3b21 bebe
000001e0: 17ad 6dbe 8e92 07be c63f ccbc 55f5 12bd
000001f0: b529 ee3c 0f00 28bc 11b8 1cbe d553 39be
00000200: c0c5 03be aec7 6dbd 5fd6 6cbe f8f3 0f3e
00000210: 863d 253e 7c0e 91bd 6813 ab3d 407c 4a3b
00000220: c701 4ebd f89d 86bd 9976 473e 2a8e 6c3d
00000230: 65cb f0bd 1f80 d9bc b558 a2bc a350 ed3b
00000240: 67a7 3ebd deaa 5e3d bb57 063e 307a 3ebe
00000250: d75e a83b b7d4 7c3c 6315 42be 79a7 323d
00000260: fb95 623d 379e 423e 647e 263c 03d1 b6bc
00000270: 54dc c23c 1a61 c6bc 554a c8bc fb66 083d
00000280: 3822 20bd 8782 c7bd f883 a6be 0b61 a13b
00000290: a30f 493e 5a20 203d 1668 09be 598b 95bd
000002a0: 84db bfbc ad29 16be 6ea1 5abd fd2a 1ebd
000002b0: e0d8 22be 851b 823c 9030 1e3e cfdb e23d
000002c0: 3a6d 2d3e 5bc4 88bd 5e1e dfbc 1a3c 39be
000002d0: ddd4 dbbd 46bd 0a3d 2c64 d63d 3e89 c4bc
000002e0: 084e c7bd 4311 32bd c4e7 c8bd 01c9 343e
000002f0: f50d 853e c546 47be 3bdb e63d ed99 3a3e
00000300: 0f42 cc3d 3ddd 033e dee7 22bd e67b 7c3d
00000310: ca87 a1bd 453e a5be 4666 60be c1f6 c9be
00000320: 96d2 5ebc 50fa b03c 2256 bc3c 2dab afbe
00000330: a014 0fbd a5c3 babd 865c 45be ada9 92be
00000340: 1106 abbe b918 23be 3705 02be 9cd6 80bd
00000350: 7ef2 8dbd 9aa2 15be 7da5 1b3e d669 403e
00000360: 16d3 463e 2fd3 bbbc a708 2abe c5a1 fc3a
00000370: f5b8 743b 0dc5 afbd 6a30 03be 3ea3 0d3d
00000380: 9271 26bd 41c9 a73c 98d2 d13d c271 563d
00000390: 15ba 773d fe70 0d3e bea0 283e 8c69 babd
000003a0: 2e51 17bd 3101 3cbd de28 dabd f324 babd
000003b0: 64fe afbe 2037 f03d 3709 febc 8f67 cfbd
000003c0: e0e5 133d 0d5f 09be 1e0e b2bd 0f63 15be
000003d0: 295b 203d f650 203e 2e04 b63d cdb3 583e
000003e0: 69fc 313d a6d7 003e d778 caba 567e a1be
000003f0: 0af0 22be bb75 f4bd a318 f3bd 1b18 5fbd
-0.14359032 -0.07262017 0.06642886 -0.08404267 0.03404788 0.13653517 0.119870596 -0.048082322
-0.08120627 -0.06728098 0.0063801897 -0.02174307 0.0051106326 -0.11186092 -0.107484646 -0.060647976
-0.1092913 -0.006110743 -0.01486732 -0.057898454 -0.116422825 0.068871245 -0.059297305 -0.069455706
0.16316044 0.22328047 0.19664793 -0.12241148 -0.34526 -0.2559478 -0.18414775 -0.07959859
0.08719269 0.065221444 0.1555579 -0.035591252 -0.2815068 -0.23648743 -0.10757055 -0.15818082
-0.09566026 -0.127114 0.06662178 0.0666048 -0.033328045 0.14623435 0.0027721927 0.03379403
-0.07763706 -0.025660532 0.02935896 0.20634866 0.0636823 0.110027514 0.114102565 0.06953837
-0.096261054 -0.01884762 0.19527754 0.23617291 0.09729138 0.20870687 0.13833915 0.11672349
-0.11882315 -0.24469621 -0.17338555 -0.283704 -0.035588183 0.109937444 -0.030879386 0.11093733
0.15688649 -0.016051777 -0.0843974 -0.2733348 -0.077860616 0.091497585 -0.12831084 -0.14235908
-0.14611998 -0.12853937 -0.19796701 -0.18811873 0.27417508 0.04100766 -0.3760367 0.07408321
0.08784237 0.038793307 0.16146359 0.06984911 -0.08671263 -0.2838887 0.04257442 0.039928
0.1338264 -0.09402211 -0.1634427 -0.19578022 -0.12326925 -0.23596507 0.06878752 0.1277228
-0.034657188 -0.25298414 -0.03231858 -0.057540502 -0.0677476 -0.028231677 -0.0729556 -0.41793844
0.10032463 0.041392226 -0.046481412 0.054854702 0.0536052 0.11075276 0.18257692 -0.37134728
-0.2321056 -0.132395 -0.024932753 -0.035878498 0.029072622 -0.01025392 -0.15304591 -0.18098386
-0.12868404 -0.058051758 -0.23128651 0.1405791 0.1613675 -0.07082841 0.08353311 0.0030896813
-0.050294664 -0.06573099 0.19478835 0.057752766 -0.117575444 -0.02655035 -0.01981769 0.0072422787
-0.046546366 0.05436217 0.13119404 -0.18601298 0.005138259 0.015431575 -0.18953471 0.043616746
0.055318814 0.19005667 0.01016197 -0.022316461 0.023786701 -0.024216224 -0.024449507 0.033301335
-0.039095134 -0.09741693 -0.3252256 0.0049248985 0.19634871 0.039093353 -0.13418612 -0.07301969
-0.023420103 -0.14664336 -0.053376608 -0.038615216 -0.15903044 0.015882263 0.15448213 0.110770814
0.16936198 -0.06678077 -0.02723616 -0.18089333 -0.1073396 0.03387191 0.10468325 -0.023991223
-0.0973168 -0.043473493 -0.09809831 0.17654802 0.2598721 -0.1946059 0.11272284 0.1822278
0.09973537 0.12877364 -0.039771907 0.061641596 -0.07887228 -0.3227407 -0.21914014 -0.3944607
-0.013600012 0.021603733 0.02299029 -0.34310284 -0.03493178 -0.091193475 -0.19273576 -0.28645077
-0.33403066 -0.159274 -0.12697302 -0.062909335 -0.06931017 -0.14612809 0.15199848 0.18790373
0.1941646 -0.022927849 -0.16604863 0.0019274285 0.0037341688 -0.08582506 -0.12811437 0.034579508
-0.040635653 0.020481708 0.10245246 0.05235458 0.060480196 0.13812634 0.16467568 -0.09102163
-0.036942653 -0.045899574 -0.10652326 -0.09089079 -0.34373772 0.11729264 -0.031010253 -0.10127174
0.036107898 -0.13415165 -0.08694099 -0.14588569 0.039149437 0.15655884 0.08887516 0.21162339
0.043453608 0.12582263 -0.001544739 -0.315417 -0.1591188 -0.11936518 -0.118699335 -0.05446635

features.9.bias f4 [64]
00000000: ca00 103d d947 e83d 76b5 843e fa36 373e
00000010: 91c9 843d 9b1c 99bc 42fe a7bd 18f2 e8bd
00000020: 83fd f83d cc65 2b3b bf69 e03d dfae 093c
00000030: 3c27 093d 1441 6ebd 9a5c b7bd 9f01 913d
00000040: dc95 1dbe 4ed7 13be d6d6 9bbd 52a9 cdbd
00000050: b0f2 ccbc fbe0 b93d 2daa ef3d 48fb 183d
00000060: d643 e13c 6c5c 403e 2486 47be cac4 05bd
00000070: 64b9 423d 4d3f 86bd bbeb 143e b8ac 7a3e
00000080: 3267 b93c c67d dabd bab5 0dbe 5145 973b
00000090: f524 b1bd 5ecf febd 805b 8cbc 9911 9ebd
000000a0: 1b7f 563c 7775 5dbd d538 62be 0081 47bd
000000b0: 945f 9bbd 4ebf 87be 6939 75bc b9cf 013d
000000c0: d1ef 4fbd 5ee2 8b3b 89c9 0bbe 77a5 fa3d
000000d0: 7cf4 d43d 084f adbb 986e 973d d6d4 ac3d
000000e0: 4023 d83d 82b1 4b3e d9a7 383e 0049 94bd
000000f0: f3a9 9fbd 57bd 15be 9369 1fbe 32b2 12be
0.035157003 0.11341829 0.25919694 0.17892066 0.06483758 -0.018690398 -0.08202793 -0.11374301
0.121577285 0.0026153205 0.109576695 0.008403509 0.033484682 -0.058167532 -0.08953209 0.07080387
-0.15389198 -0.14437601 -0.07609336 -0.10042061 -0.025018066 0.09076115 0.1170238 0.037349015
0.027498167 0.18785256 -0.19484764 -0.032658376 0.047540084 -0.065550424 0.14543049 0.2447995
0.022632215 -0.10668521 -0.13838854 0.0046164175 -0.08649627 -0.12441896 -0.017133474 -0.077182
0.013091828 -0.0540671 -0.22091992 -0.04870701 -0.075865895 -0.2651314 -0.014967301 0.03169224
-0.050765816 0.0042689284 -0.13651098 0.12238591 0.10398194 -0.0052889623 0.07394141 0.08439033
0.105535984 0.19891933 0.18032779 -0.07240486 -0.07796087 -0.14623009 -0.15567617 -0.14325789

features.12.weight f4 [64, 64, 5]
00000000: a352 7ebe ad81 f5bd e9cd 6a3e 7dd7 beba
00000010: bbab aabc b8cf 83bc 8742 33be 0435 56be
00000020: 1f2a 85be 4269 0cbe e53f 4bbe 2090 89be
00000030: f989 dbbd 1d47 a0be 71a2 91be a810 2ebc
00000040: 8fdf b4bc f292 953e e062 993e 7816 0bbd
00000050: 5c18 8d3d c26d 9c3d 9612 1fbc a614 603e
00000060: 6204 e9bb 5cc2 d2bc 98d2 69be 1906 433e
00000070: b7d1 063e d258 513e 2f3d d53d cee8 153e
00000080: c394 253e be38 e73e 8975 8b3d 2d13 b03d
00000090: 7dcc 0dbe 22a0 30be 2714 173d 487d e8bc
000000a0: 8321 80bd 36f2 48be f3b3 88bd 01fb 003d
000000b0: 82aa b2be 0de6 9e3c f0f1 533e 0b13 953c
000000c0: 803f 05be b47b 4bbe ca80 c33c c207 7c3c
000000d0: f87a 6f3c fd27 a5bd 1753 68be ad47 b6bd
000000e0: a796 5e3e 905e dfbc 4b57 8d3d 1ace 5fbe
000000f0: 09e2 cc3d bd4d 00bd 0ee2 ad3d c3d9 d03d
00000100: c8a5 8ebd 5ccf 9e3d 4add 2a3d 044e 8f3d
00000110: 15a8 683e 0359 223e 0f08 acbc 0532 07bd
00000120: 4488 a03c b472 783d 98ae 87be 05f3 743d
00000130: 440f 3d3d f9a2 f4bd 0a32 3a3e a502 b83c
00000140: d8ee 0fbe f7e6 29be ef2c 30bd bf1b ee3d
00000150: 281e b93d dfd0 91bd 4b55 efbd a9f1 8ebd
00000160: a04b 06be 4e8b 4f3d 670c 67be f617 8ebe
00000170: f5b5 973c 95e1 cebd a5d9 1cbe 87c6 a73d
00000180: a706 12be e0af d1bb d0e2 cfbe a722 c3be
00000190: f076 ec3c 93a5 293e 60bd b03d 2230 753d
000001a0: 9094 c8bd b5c7 2fbd aefc febb 72cd 2abd
000001b0: 3e0d f7bb a751 97be 82bf c0be 4db6 60be
000001c0: 94ea 08bd d113 b53d 7e81 c63d cc0f 1abe
000001d0: d39e 1bbe 6062 c0be 7d40 b8be 8267 b0be
000001e0: 1a0b 853d c14b 573d e346 143e a79a ac3e
000001f0: 50ff 99be 2157 7ebe b626 e9be 6725 05bf
00000200: da6d bcbe 50da d5be 3447 6f3d 02e5 ecbd
00000210: 2270 553c ddce e93e 8f8d 07bb 30b4 8dbd
00000220: 0f06 aa3d 4711 3cbc 299d 303e 29d9 e33a
00000230: ac8c 4abd 5838 85be 5b00 70bd 9e5b 8f3d
00000240: dddf 9bbd 4ed1 a9be 69bd 92be 10d1 ecbd
00000250: a964 d2bd 2e0c 15be c0ad 3f3e 6f37 ef3d
00000260: 9711 143d 51d6 cd3e 5b70 dbbc eea5 f63d
00000270: 457e f33d 9ea0 ab3d ef47 02be 1621 8bbe
00000280: 70da 123e 9358 ffbd a11f 0a3e 3f9c bd3d
00000290: 069e 3a3d bfb1 023e 58e3 0b3d 332c d53d
000002a0: b4f7 26be 7244 b1be 6935 903d 3dab a0bb
000002b0: 82af da3c 15b6 37be a59d a03d 62f8 213e
000002c0: 7e20 9d3d 52af e53d b58b 4d3e e501 0d3e
000002d0: be80 ae3e 1adf a23e f68f f73c aa03 0dbe
000002e0: f335 413e 48cd 223e d7f4 2fbd f7c2 e5bd
000002f0: 028e 113f 8a26 4a3e 0f4e c5bd ced0 9d3d
00000300: 314d fc3d f70e 20bc 27f2 c1be 4b86 76bd
00000310: 5166 2fbe 4078 19be 0641 efbd ca09 223e
00000320: eef3 0abe 99fd 65be a25a 57be a541 0dbe
00000330: f533 92be 9988 cebd 61c6 87be 1361 67bd
00000340: de21 40bd 7ea0 91be 2a46 90be 6d91 3dbe
00000350: 9879 0abe 2453 3fbd 3d5b 0a3d f687 85bc
00000360: 85f9 53bd 424c 07be 9621 55bd cb75 55be
00000370: 3a9e dc3d 7425 983d e6f3 efbd 3948 d1bd
00000380: aadf 4dbe e00d 833d 81b8 40be 4c02 af3d
00000390: 7084 ca3a b806 273e 6981 3ebe ed69 2ebe
000003a0: 70ff d43d a9ea 543e 9a72 8abd 7955 d63d
000003b0: 68e1 9cbd 3228 383d 7ddd f63e 78c1 8dbd
000003c0: c52d 8dbd b4a5 6bbd 6ae3 22be de2e 6bbd
000003d0: d7aa 7fbd 97bd ab3d 618b c43d 29af 35bc
000003e0: 4aa6 9b3b d5b5 e0bd ba9e 0e3e 549e 9abd
000003f0: 46c0 cdbd 182d 8bbc 0014 bd3d 6880 33be
-0.24836211 -0.11987624 0.22930111 -0.001456007 -0.02083384 -0.016090259 -0.17505847 -0.20918661
-0.26008698 -0.13712028 -0.19848593 -0.2686777 -0.107196756 -0.31304255 -0.28444245 -0.010624088
-0.022079257 0.29213673 0.29958248 -0.033956975 0.06889412 0.07638122 -0.009709021 0.21882877
-0.007111118 -0.025727443 -0.22834241 0.19045295 0.13165937 0.20444039 0.104120605 0.14639589
0.1617003 0.45160478 0.068095274 0.085974075 -0.13847537 -0.17248586 0.036884453 -0.028380051
-0.06256392 -0.19623646 -0.066749476 0.031489376 -0.34895712 0.019396806 0.2069776 0.018197557
-0.13012505 -0.19871408 0.023865122 0.015382709 0.01461672 -0.08064268 -0.22687946 -0.0890039
0.21737157 -0.02726677 0.069014154 -0.21855965 0.1000405 -0.031324137 0.08490382 0.10197785
-0.06965214 0.077543944 0.041714944 0.06997302 0.22720368 0.15854268 -0.020999936 -0.033006687
0.019596227 0.060656264 -0.26500392 0.059802074 0.046157137 -0.11945147 0.18183151 0.022462199
-0.14055955 -0.16592012 -0.043011602 0.11626386 0.09038955 -0.07119917 -0.1168619 -0.06979687
-0.13114786 0.05066996 -0.22563325 -0.27752656 0.018519381 -0.1010162 -0.153174 0.08192163
-0.1426035 -0.0063991398 -0.40602732 -0.38112375 0.028865308 0.16567068 0.086298704 0.059860356
-0.09793961 -0.042915065 -0.0077815866 -0.041699834 -0.0075394204 -0.29554483 -0.3764611 -0.21944542
-0.033426836 0.0884167 0.096926674 -0.15045089 -0.15197305 -0.37575054 -0.359867 -0.3445397
0.06496258 0.05256248 0.14480166 0.3371174 -0.300776 -0.24837925 -0.45537347 -0.52010196
-0.3680256 -0.41768122 0.058417514 -0.11567117 0.013027223 0.45665637 -0.002068374 -0.06919134
0.08301937 -0.011478729 0.17247452 0.0017383444 -0.04945056 -0.2601955 -0.05859409 0.069998965
-0.07611058 -0.331675 -0.28660133 -0.11563313 -0.10273106 -0.14555427 0.18718624 0.11680495
0.036149587 0.40202573 -0.026786974 0.12043367 0.118893184 0.08380245 -0.12722753 -0.2717368
0.1434114 -0.12468066 0.13488628 0.09258317 0.04556086 0.12763117 0.03415236 0.10408821
-0.16305429 -0.34622532 0.07041437 -0.0049032257 0.026695017 -0.17940553 0.07842568 0.15817407
0.07672213 0.1121508 0.20072825 0.13770254 0.34082597 0.31810838 0.030220013 -0.13770929
0.18868236 0.15898621 -0.042958107 -0.11218827 0.5685731 0.19741264 -0.09634029 0.07705842
0.123194106 -0.009769193 -0.3788006 -0.060186666 -0.17128874 -0.14987278 -0.11682324 0.15824047
-0.13569614 -0.22460021 -0.21030667 -0.13794573 -0.28555265 -0.10084648 -0.2651854 -0.05648906
-0.0469073 -0.28442758 -0.2817853 -0.18512507 -0.13522947 -0.04671015 0.033778418 -0.016300183
-0.051751632 -0.13212684 -0.052033983 -0.20845716 0.10772367 0.074290186 -0.11716442 -0.102188535
-0.20104852 0.06399131 -0.18820383 0.0854536 0.0015450846 0.16311157 -0.18604054 -0.17032595
0.10400283 0.20792641 -0.0676014 0.10465521 -0.0766018 0.04496021 0.48215857 -0.06921667
-0.068934955 -0.057531074 -0.15907064 -0.057417743 -0.062418785 0.08385771 0.09596897 -0.011089125
0.004750048 -0.10972182 0.13927737 -0.0754973 -0.10046439 -0.016989276 0.0923233 -0.17529452

features.12.bias f4 [64]
00000000: 9078 d1bd d476 05be 3129 b5bd 0fe5 cfbc
00000010: e736 3d3d 28d8 a63e 81c8 dbbc a667 22bd
00000020: 1831 01be cb75 1e3c 3da1 863d 6344 44be
00000030: cad3 9d3e 6a43 61be 3c12 2bbd c88e d1bd
00000040: 34d0 88bd a248 43be 475d 01bd f365 bbbd
00000050: 1ead 2e3d 7bbb 20be 359b 44bd c17d d03d
00000060: d7d8 773d e23a 90bd 63d2 35be 48aa 003d
00000070: 4e12 553e 96e7 093d 92d0 803e 024e 42bc
00000080: 9cfa e7bd 515a a1bd d930 b43c 4717 a5bb
00000090: 4ed9 05be bbf6 493e 5d46 8c3e c5cf 4fbe
000000a0: c6a0 ba3c 4771 1c3c 6573 923e f21a 82be
000000b0: ac44 47be b302 913e d2b5 303e 2e44 3a3e
000000c0: 5524 1bbe 8038 363e 47ad 283d 0037 003d
000000d0: 752c 14bd 6a15 003e e709 82bd 35a5 6ebe
000000e0: 63fc 643e 4be2 903c 65d4 0bbd 7503 86bd
000000f0: aedc 963e 974b 7abe f1e9 133d e37b 1bbd
-0.102280736 -0.1303361 -0.08845747 -0.025377778 0.046194937 0.3258679 -0.026829006 -0.039649628
-0.12616384 0.009671639 0.065737225 -0.19166712 0.30825645 -0.21998373 -0.041765437 -0.102323115
-0.066803366 -0.19070676 -0.031583097 -0.09150305 0.042645566 -0.15696518 -0.04799958 0.10180236
0.06050953 -0.07042481 -0.17756037 0.031412393 0.20807764 0.033668123 0.25159127 -0.011859419
-0.11327097 -0.078785546 0.021995949 -0.0050381753 -0.13071176 0.19723026 0.27397433 -0.20294102
0.02278174 0.009548492 0.28603664 -0.25411183 -0.1945979 0.28322372 0.17256859 0.18190071
-0.15150578 0.1779499 0.041180875 0.031302452 -0.03617521 0.12508169 -0.06349545 -0.23305209
0.22361903 0.01768603 -0.034138102 -0.06543628 0.2946524 -0.24442898 0.036111776 -0.037959944

features.15.weight f4 [64, 64, 3]
00000000: 2f0b 233d 6163 adbb 61e9 003c 6d16 173e
00000010: b948 0e3e b7ee c03c dd99 10bd 38cc a73c
00000020: ba2e 803d df13 293d ca79 59bc 2d15 fcbd
00000030: f478 52bd b09b 093b 63eb 8d3c dd76 103e
00000040: 8044 283e dbc6 6c3d 44fc 80bc 5c94 da3d
00000050: 0309 893d fb86 5f3c 4195 4ebd ea52 6f3d
00000060: 7e61 143d f7ba 2dbc af0e 60bb c154 bcbe
00000070: 6934 00be b833 863d d44d de3c 5d72 f5bd
00000080: ca11 6cbe 703a 093e fd07 4ebd c210 03be
00000090: f56d 0c3e 1c0c 75be 0ca7 85bd 2cbb c03d
000000a0: 6bc7 a23c e9dd 95bd aef5 8dbe 748b 86be
000000b0: 10bd 02bd 68ba f6bc 2cd8 abbc e4f6 753a
000000c0: 4dea efbc 90ee 0b3c 9e35 30bd 3fd5 a83d
000000d0: ce61 f33d 206a 223d 778f 0bbe c60b 1a3c
000000e0: c7a1 9d3e bd83 90bc 88d2 143d e6cb 233d
000000f0: 5788 23be 5541 793c c0e8 9b3d 7fab a13d
00000100: 81b2 253e 1837 f73c 8cb5 373e c33c a53d
00000110: 5ab8 9bb8 c00a 133b c306 62ba 2d9f 4cbd
00000120: bfb3 103e b797 573e c974 4a3e 09e4 a4bd
00000130: 60e4 d03d f7fc db3d 97dc 02bd 1e60 333d
00000140: 5061 21be 7be6 15be fed6 b5bb ff9d 22be
00000150: 1073 66be de46 c0be b409 dabd c2f1 07bd
00000160: 3e10 67bd fec9 83bd e6fd 823e ee2c 583c
00000170: 0a76 e4bd b814 673d 3cb3 bbbd 8386 8d3d
00000180: 5415 1b3e 593f 433d 5368 553d 37d8 d93c
00000190: 7114 88bc 4b08 20be 371e 303d 9d45 353e
000001a0: f95e ab3b 12e7 03ba 2b95 0a3e 8fcb a13d
000001b0: 9069 e03d 38b4 d13d e248 db3c ebfa 65be
000001c0: e194 a2be afb0 efbd 436f 75be 8aa4 39be
000001d0: 749f af3d 13f4 eb3d 2dd9 793c 0fdb 7a3c
000001e0: 6daa 273e 20a2 473d 7719 aabc e9b6 943d
000001f0: 0b1e e33d eb42 063b 5ae1 d1bd 7f0b 6abc
00000200: e51b 0bbe d0fe cd3d f1e3 9c3e 002d 603e
00000210: e0b0 e73b 2300 b63c 4100 c53d 370a 7cbe
00000220: 2b5a 65be 6e60 38be 0f16 aebd 6327 12be
00000230: 997b 24be f860 c03d 3fc5 833d a5f4 07bd
00000240: 3e4e 6fbd 8f63 1b3e 69a5 743d fc28 06be
00000250: e15f 67be bee5 22be 5ab9 09be 5350 cbbd
00000260: 0cce 0b3c 2bae 253e 5185 233e 73ee cb3c
00000270: 144c 033e cb8e 2b3e 6d33 af3c 316b 5c3b
00000280: ff79 d1bd 2a3c bcbd 2b7d f83d 441f 873d
00000290: a0bd b5bd fe25 513e bcff f13d 9802 ed3d
000002a0: abd6 d43d ad38 7d3d 04de a93d 9d6b f9bd
000002b0: 5d42 c63d 3a8e 68be a717 ab3d cc08 8b3e
000002c0: 7808 ca3d 77ba 00bd 06f7 eb3c 6440 47bd
000002d0: 0bfd 62be 642f bebe 99c3 0bbe c498 0b3e
000002e0: 9038 ab3d cd90 243e 7f20 5e3d 9ca5 a73d
000002f0: 44b5 d13d 3f59 db3d 2bc1 093d 7ca1 2db8
00000300: 988e 343e 66fd 0b3e 2d62 163d 1d90 1d3d
00000310: 7d0b 853c 2829 29be 1e9b 16be 2f6a 143e
00000320: 2918 8a3d 6203 f3bc 7f1e 50be 94d3 9dbe
00000330: 735b e73c 7b7f fa3d 2193 05be 49be a03d
00000340: dfcd 89bc 9c1f 033d 73c7 7cbe dc98 18bc
00000350: 93a3 ffbd ca7e c7bd 24fd 18be 4c79 5dbe
00000360: 9a80 313e fd37 903d cbe2 493d de71 20bd
00000370: 5eda 1a3d 77f5 433c e8fc dfbe ff24 28be
00000380: 9d64 f4bd e6ed 3c3c d87e 863e b610 8ebd
00000390: 7d5a bb3e 60ee b4bd 2b1d e9bc 21fc d03d
000003a0: 89f3 d2ba a58c 5cbe 222e e03e 88fd 00be
000003b0: e958 edbc 3248 6c3e f342 bc3e 721e 853e
000003c0: d40b b63c eec9 733d 8a3e e7bd 06ac 233d
000003d0: 9289 f93d eca1 44be aad2 113e 49a2 943d
000003e0: d55f 90bd 1b23 803e e36b 2f3e 2d00 39bd
000003f0: 1c6d de3d 0ba0 0f3e 6cfa 683c 9ff4 223e
0.039805587 -0.005291388 0.007868142 0.14754649 0.13894929 0.023551328 -0.035302985 0.020483121
0.062589124 0.041278716 -0.013273666 -0.123087265 -0.05138488 0.0020997338 0.017324155 0.14107843
0.1643238 0.05780683 -0.01574529 0.106728286 0.06691172 0.013643022 -0.05043531 0.058428682
0.03622579 -0.010603658 -0.003418844 -0.36783412 -0.12519993 0.06552833 0.02713672 -0.11984704
-0.23053661 0.13401198 -0.050300587 -0.12799361 0.1371382 -0.239304 -0.06526002 0.094107
0.01987048 -0.07317717 -0.277265 -0.2627827 -0.031918585 -0.030118182 -0.020977102 0.0009382798
-0.029286528 0.008540764 -0.043019883 0.082437985 0.11883889 0.03965199 -0.13628946 0.009402221
0.3078749 -0.017640943 0.03633359 0.039989375 -0.15969978 0.01521333 0.07612753 0.078940384
0.16181375 0.030177638 0.17940348 0.0806823 -7.425314e-05 0.0022436827 -0.00086222234 -0.04995649
0.14131068 0.21053968 0.19771113 -0.08051307 0.10199809 0.107416086 -0.031948652 0.043792836
-0.15759778 -0.14638703 -0.0055493107 -0.15880583 -0.2250483 -0.37554067 -0.10646382 -0.033189543
-0.056411974 -0.06435011 0.25584334 0.013194306 -0.11155327 0.056416243 -0.091650456 0.06910422
0.15144855 0.047667835 0.052101444 0.026592357 -0.01661131 -0.15628164 0.042997565 0.17702337
0.0052298275 -0.00050316856 0.13533466 0.07900154 0.109576344 0.10239452 0.026768152 -0.22458999
-0.3175421 -0.117036216 -0.23968224 -0.18129173 0.08575335 0.11521163 0.015249533 0.015311017
0.16373606 0.0487386 -0.020764096 0.0726145 0.110897146 0.0020486664 -0.102480605 -0.014284967
-0.1358486 0.10058367 0.30642655 0.21892166 0.0070706457 0.022216862 0.09619189 -0.24613272
-0.22397678 -0.18005535 -0.08500301 -0.14272837 -0.16062774 0.09393495 0.06434106 -0.033192296
-0.058424227 0.15174697 0.05972806 -0.13101572 -0.22595169 -0.15907952 -0.13449612 -0.0992743
0.008533012 0.16179721 0.15968825 0.024893975 0.1282199 0.1675369 0.021386826 0.0033633227
-0.10228347 -0.09191163 0.12133249 0.0659776 -0.08874059 0.20424649 0.118163556 0.1157276
0.10392507 0.06182163 0.08294299 -0.12178729 0.096806265 -0.22710505 0.08354121 0.2715515
0.098648965 -0.031427827 0.028804313 -0.048645392 -0.2216684 -0.3714553 -0.13648833 0.13632494
0.08360398 0.16070862 0.05423021 0.08185884 0.10239652 0.10710382 0.033631485 -4.139681e-05
0.1763252 0.13670883 0.03671472 0.038467515 0.01624083 -0.16519606 -0.1470761 0.14493631
0.067428894 -0.029664699 -0.20324133 -0.30825484 0.028241849 0.12231346 -0.13044406 0.07848794
-0.0168218 0.032012567 -0.24685459 -0.009313788 -0.12482371 -0.0974098 -0.14940315 -0.21628302
0.17334214 0.07041929 0.049288552 -0.039171092 0.037805907 0.011960379 -0.4374764 -0.16420363
-0.11933253 0.011531329 0.2626865 -0.06936781 0.36592475 -0.08834529 -0.028456291 0.1020434
-0.0016094308 -0.21538027 0.43785197 -0.12596714 -0.02897306 0.23074415 0.36769828 0.2599979
0.022222437 0.059518747 -0.11291225 0.039958976 0.121844426 -0.19202393 0.14240518 0.07257516
-0.070495285 0.25026783 0.17131 -0.045166183 0.10860655 0.14025895 0.0142198615 0.15913628

features.15.bias f4 [64]
00000000: e9dd 78be dc00 bf3e 0a20 f83b 16b7 f1bc
00000010: 9453 b53c b1b2 afbe 920d 1e3e a2a7 fdbd
00000020: 20c4 54be 69d7 cbbb d090 6abd e6ea b93e
00000030: 8c1d fabd 964d 443e 579a 90bd 44ec 99bd
00000040: bbfb a5be bdd8 34bd 19f3 01be 83ac a13d
00000050: 93c2 1d3e 6048 59bd 076b aa3e 20de 3dbd
00000060: 26cd be39 97e7 883d 341c 1d3c 2a85 a5bd
00000070: 13f7 91bd adff 25be 8ddc 8abc 9c96 62bd
00000080: 5cea 47be baaa a73d e82d c8bd 115d 04be
00000090: 7ecd a6bd 7b91 9b3e 6bdf 4abe 16e5 d73d
000000a0: b310 2fbd 38f6 28be 4a1e 86be 915d 223c
000000b0: 310e 853e ca88 803d c06c d03a 66f5 a33e
000000c0: 15ac 833e 42cd 6a3e eda7 173e 54ff 733e
000000d0: f471 65be 37f0 18bc 2f92 71bd d300 893d
000000e0: b54f 9c3b 7077 143d db0d 57bd 917b 1f3d
000000f0: 199e 0e3e c1bf 953d beb2 9e3d 6a7a 983e
-0.24303402 0.37305343 0.0075721787 -0.029506247 0.02213458 -0.34316018 0.15434864 -0.12385489
-0.20777941 -0.0062207473 -0.05726701 0.36312026 -0.12212667 0.19170222 -0.07060688 -0.07515767
-0.32418618 -0.04415201 -0.1269039 0.07894232 0.15406255 -0.053047538 0.3328478 -0.046354413
0.00036392472 0.06684797 0.009589244 -0.0808204 -0.07127204 -0.16210814 -0.01695087 -0.055319414
-0.19522995 0.081868604 -0.09774381 -0.12926127 -0.08144663 0.3038443 -0.1981179 0.105417415
-0.042740535 -0.16500175 -0.26194984 0.009910003 0.2598739 0.062760904 0.0015901551 0.32023162
0.25717226 0.22929862 0.14810152 0.23827869 -0.22406751 -0.009334615 -0.058977302 0.0668961
0.004770244 0.036246717 -0.052503448 0.0389362 0.13927497 0.07311965 0.07748936 0.29780895

features.18.weight f4 [72, 64, 3]
00000000: 4d97 85bd 2ff2 67bd 6d48 453c 9234 253d
00000010: 9732 4cbe 47a4 31bd 0f4f 4bbe ef64 adbc
00000020: bbce 043d 27e5 bd3d 709a ddbc c72c 833c
00000030: 7ce0 013c cc47 0cbd 88cd 3e3c e86f ce3c
00000040: b080 05bd 1f9a 0abd 8cbf bb3d 0727 8c3d
00000050: 3e34 5cbd 2723 35be 789f 8cbd f412 d8bc
00000060: 7a23 dfbc f6e5 96bd 18fa 403c 99d9 23bd
00000070: 0df4 a6bd 616f 3ebd e222 5bbe dcf0 d4bc
00000080: b287 933d d2e7 8dbd 15b9 bfbd 6207 5ebd
00000090: 171e cc3d 8b42 94bd 89be f9bd ea44 8cbd
000000a0: a0b0 2ebd 3e21 ffbc 3c76 1bbe 4d20 bcbb
000000b0: 0820 c83d e1eb 723e d9c1 af3d 942d 343d
000000c0: 3959 60bd c650 13be 8a91 84bd 6837 423c
000000d0: 48bf 0a3d 29ce c33c 0cb1 f43b 008d 99bc
000000e0: ac06 43bc 7bc3 58be 1616 4dbe 3581 973c
000000f0: 0cb6 0d3e 561b 04be 119f c5bd 07ba d1bc
00000100: 4b14 bcbc d12b 8dba 512e 52bc 1ebe 76bb
00000110: e3bb 36bd b1bd 91bd 2a75 99bd 19e1 c13d
00000120: 289c 2a3d a6ba 453c 8cf8 a33d 8514 6bbd
00000130: 12e9 84bd bf9e 01bd fa41 bb3d 5e3b 77bc
00000140: a484 f2bd 4824 923d 94d2 4bbd 9098 91bd
00000150: 54d1 f33b ff55 87bd 1383 b4bb 952e 3d3d
00000160: f30b a6bd 523e c0bd f699 743d 3830 36bd
00000170: b5f6 36bd 5dac 3e3c bc4e 82bd b027 b93c
00000180: f471 c63d c72f 18bc bce6 58bc 0a6c 5d3b
00000190: 6a29 7f3c 59f1 2dbe d73d 4abd 3b8d 393d
000001a0: 890a 8f3d a0e6 e5bd 0692 d03d 5f65 803d
000001b0: b098 833b 4587 09bc 53ad 633c 119f f13c
000001c0: 343b b4bd e120 17bc 22f4 fd3d ec07 073e
000001d0: 3c29 9e3d d1bc 84bd 4240 a9bd f45c 993d
000001e0: 1b61 a3bc fd0a c2bd 99f3 e1bd 1984 8bbc
000001f0: 409f cfbc 308e 13be c606 38bd ea6a 2abc
00000200: df2a 223d 0b31 8ebd 09ae 993d 9dbb 84ba
00000210: 2f58 1b3e cc90 45bd 5663 8fbd 7d63 0a3d
00000220: eeed febd 35ea 41bd dd19 04bd 8246 98bd
00000230: f9d7 863d 15d0 d23d 4e69 073e fb68 4cbd
00000240: 041e 6b3d ab19 fd3d 125d 67bd 5f6b 98bc
00000250: e612 10bd 1283 303d 4e6c 0cbe 1e94 aabb
00000260: 80fa 4ebd 7a8a 6bbd 6068 05be 41a6 51bd
00000270: 2867 03be 3b06 f5bc 6b68 3fbe a1b4 33bd
00000280: 66ce 9d3b a6ac 603c 0963 7f3d d252 bbbb
00000290: afd5 913c be7b 35be 7ba9 99bc cc55 ae3d
000002a0: 751a 05bd 0574 4cbd 4093 9f3d 8442 e23c
000002b0: 3ec8 90bc 4565 ae3d ab58 2cbe 2a87 1abd
000002c0: 818b 2d3e b34a a83d 4dab 16bd b23e 1e3c
000002d0: 3e9d a8bd 3ec9 c23d 44a8 0e3d c974 05bd
000002e0: c122 36bd 782e a73d 1d30 a5bd 6890 ae3d
000002f0: bbe7 d63d 08f9 243d c050 cbbd c6d6 50bc
00000300: 85fc 30be 3737 32be c1c0 31bd b6bb af3d
00000310: bfea f2bd c777 1dbe 7214 7cbc cd6b d2bd
00000320: d542 d6bd 372d 5c3c a87e 793d 27b2 ed3d
00000330: cbc8 e83b b61d 0d3e 2eb1 183e 9491 8ebd
00000340: 1e34 92be 325d 10be 46c4 11bb a597 833d
00000350: 5228 0ebd 33d9 60be bf0d 69bd 7247 8b3d
00000360: ecac 64be 4761 b0bd d57d 0fbe 5565 643d
00000370: ea99 29be d94b 7cbd 0826 813d 4f60 1b3e
00000380: 66d3 1dbe cc4a 10bd 7ee0 a6bd 96d0 443d
00000390: e02a f9bc 9e9b e539 d408 88bd 9ab7 ee3d
000003a0: b51c 1a3e 80ce 0e3b c438 22be b1dc f43d
000003b0: c58b b3bc 0e75 9b3d c54d dd3d e4a2 0f3e
000003c0: 773d e6bd 78af 31be a228 3fbe d05a 013d
000003d0: 3217 eebc 3159 413d f500 da3d e616 f8bd
000003e0: 9646 8d3d 0d2b 51bd 3eed 34bd b6ed 1bbd
000003f0: 13eb 86be 085b 623d 4c33 e6bd 96ca 003e
-0.06522999 -0.05662745 0.012041193 0.040333338 -0.19941173 -0.043369558 -0.19854377 -0.021166293
0.032423716 0.09272223 -0.02705118 0.016012562 0.007927056 -0.03424816 0.011645682 0.025199845
-0.03259343 -0.033838388 0.09167394 0.068433814 -0.05376076 -0.17689191 -0.06866354 -0.026376225
-0.027238596 -0.0736808 0.011778377 -0.04000244 -0.08152018 -0.046492938 -0.21400025 -0.025993757
0.07203616 -0.06928982 -0.093614735 -0.05420626 0.09966677 -0.072392546 -0.12194545 -0.06849082
-0.04264891 -0.03114378 -0.15181822 -0.0057411552 0.097717345 0.23722793 0.085818954 0.04398878
-0.05477259 -0.14386281 -0.06473072 0.01185403 0.033873826 0.023902016 0.0074673947 -0.018743992
-0.011903446 -0.2116832 -0.20027956 0.018494228 0.13838977 -0.12901053 -0.0964948 -0.0256014
-0.022958895 -0.0010770505 -0.0128284255 -0.003764994 -0.044612776 -0.07116259 -0.074930504 0.09466762
0.04165283 0.012068426 0.08006391 -0.057392616 -0.06489767 -0.031645533 0.091434434 -0.015089838
-0.118417054 0.07135826 -0.04976137 -0.07109177 0.0074407253 -0.06608199 -0.0055087893 0.046187002
-0.08107748 -0.09386887 0.05971714 -0.04447958 -0.044668872 0.011637774 -0.06362674 0.022601932
0.096897036 -0.009288735 -0.013238605 0.003378632 0.015573839 -0.16986598 -0.04937538 0.045300703
0.06984431 -0.11225629 0.10184102 0.06269335 0.0040160045 -0.008394067 0.013896304 0.029494794
-0.088003546 -0.009224148 0.1240008 0.13186616 0.077227086 -0.06481326 -0.08264209 0.074884325
-0.019943764 -0.09474752 -0.11032791 -0.017030763 -0.025344491 -0.14409709 -0.044928335 -0.010401467
0.039591666 -0.06942948 0.07503898 -0.0010126714 0.15170358 -0.048233792 -0.07001369 0.033786286
-0.12447725 -0.047342498 -0.032251228 -0.07435323 0.06584162 0.10293595 0.13223764 -0.049904805
0.057401672 0.123584114 -0.056485243 -0.018605886 -0.035174273 0.04309375 -0.1371319 -0.005205645
-0.050531864 -0.05750511 -0.13028097 -0.051183943 -0.1283232 -0.029910197 -0.18692176 -0.043873433
0.0048158644 0.013713038 0.062350307 -0.00571666 0.017802088 -0.17722985 -0.018757572 0.08512458
-0.032495935 -0.049915332 0.077917576 0.027619608 -0.017673608 0.085154094 -0.16830699 -0.03772656
0.16947748 0.08217373 -0.03678446 0.009658502 -0.082331166 0.0951104 0.03482844 -0.032582078
-0.044466738 0.0816316 -0.080658175 0.08523637 0.10493418 0.040276557 -0.09927511 -0.0127465185
-0.17283829 -0.17403875 -0.043396715 0.08580725 -0.118611805 -0.15377723 -0.015385734 -0.102744676
-0.10461966 0.013438514 0.060911804 0.116062455 0.0071040145 0.13780865 0.14911339 -0.069613606
-0.28555387 -0.14098051 -0.0022242232 0.06425408 -0.03470642 -0.21957855 -0.056897875 0.068007365
-0.2233159 -0.08612304 -0.14012845 0.0557607 -0.1656262 -0.06159577 0.06306082 0.15173458
-0.15412673 -0.03522758 -0.08148287 0.048050486 -0.030415952 0.00043794228 -0.06642309 0.11656113
0.15050013 0.0021790564 -0.15841967 0.11956156 -0.021917233 0.07590686 0.10805849 0.14026982
-0.11242192 -0.17352092 -0.18667844 0.031580746 -0.029063795 0.0472042 0.10644714 -0.121137425
0.06898229 -0.051066447 -0.044171564 -0.038068496 -0.26351222 0.055262595 -0.11240253 0.1257728

features.18.bias f4 [72]
00000000: d7f9 9f3d 7e24 6d3e 5263 b43e 0c06 23be
00000010: 22be 9abd 2e66 14be c2f2 afbd 0e46 87bd
00000020: 099a ddbd 2ba9 6abe 5a57 bd3d 3c25 c6bd
00000030: 2490 4cbe b516 f43d e18a 283f c380 b0bc
00000040: f80f d63e a5b4 68bb 0da2 d33e 2cce bcbd
00000050: 4881 2abe 5e21 7bbd 149c e43a ef6f 453e
00000060: c58a b03e cad0 063e 76c9 123e a492 183e
00000070: 1dba a13e 9202 0abe 136e a13d fb4b f4bc
00000080: 48d0 3f3e f4c4 f93e 4728 ecbc 0df2 6d3c
00000090: e928 a73d 150f 2fbe a0a3 333e 5c1d d23d
000000a0: d852 c13e 6eb9 9fbd 29d1 0c3f a7bf 64be
000000b0: b0b1 ff3d e823 dbbd 5478 c73e af77 20be
000000c0: faf3 bd3e 8ddf 533e a0d1 4c3e 2c64 8b3d
000000d0: 6efd f7bd 72cd 523d 01c6 a9bd 5edb 8fbd
000000e0: af65 e93e 8a4f d83d d582 d13e d84e 173e
000000f0: 1ddd 8dbd a1d0 85bc 1130 8dbb 3c70 a7bd
00000100: 41ac a03e 0ffe 6ebd 9df8 f4bd 8741 7a3e
00000110: 49c6 3c3d 5a18 f9bd 2713 b73e 8edf cebd
0.07811325 0.23158452 0.35232025 -0.15920275 -0.07555796 -0.14492103 -0.08591224 -0.06605159
-0.108203955 -0.22916095 0.092451766 -0.09675071 -0.1997686 0.119183935 0.6583691 -0.021545773
0.41809058 -0.0035508063 0.41334572 -0.09219012 -0.1665088 -0.06131112 0.0017441534 0.1928098
0.34480873 0.13165584 0.14334664 0.14899689 0.31587306 -0.13477543 0.07882323 -0.029821387
0.18731797 0.48783076 -0.0288278 0.014523041 0.081621 -0.17095597 0.17542887 0.10259506
0.37758517 -0.0779904 0.55006653 -0.22338735 0.12485063 -0.10700208 0.3895899 -0.15670656
0.37100202 0.20690747 0.2000184 0.06806216 -0.12108885 0.05146546 -0.082897194 -0.07024263
0.4558539 0.10562046 0.4092013 0.1477617 -0.0692694 -0.016334834 -0.0043087085 -0.08175704
0.3138142 -0.058347758 -0.11961482 0.24439059 0.046087537 -0.12162848 0.357568 -0.101012334
