model/NormalClassifier.pth (torch, 341423 bytes, 19 tensors)

embedding.features.0.weight f4 [8, 1, 16]
00000000: 1d82 75be 176a 223d 96c4 233e 515e 19bd
00000010: 42d8 6abd 8e15 3c3e 5db9 78bd 09ff b13b
00000020: 3c36 f53d 5abe 343e 55a1 423d 9c24 3d3d
00000030: 3355 0e3e 737a 9a3c 8741 b83d 16a9 763e
00000040: 4323 5c3e 97f8 f53c bc6c 47be 09a6 7d3e
00000050: 7f1a 0abe 1d4b 1d3e b253 e4bd 97a8 ad3d
00000060: 0794 5abe 2cbe 483e 19b5 203e 243e 12be
00000070: 0f0a 563d 5789 b4bd 1dfe d1bd 47e0 603e
00000080: 51fa e7bd 2512 633e 2ef9 93be a3b7 93be
00000090: d3b2 ac3d 3159 37be 4a2b 303e 8560 403e
000000a0: a907 cd3d cdef f8bd d2c3 27be a640 4cbe
000000b0: 64d7 ad3d a1c1 e23d 2692 893e 4bcc ff3d
000000c0: 3027 e5bd 59ab f93d 5d08 1e3e 1916 52be
000000d0: 1868 d43d deca dc3d 5fcc 80bd ed69 243e
000000e0: 205e 56bc 918a 903d 2fb1 5d3e 052e 333e
000000f0: 887e a0bd bd55 19be 38ec 7abd 01aa 05bd
00000100: 3c53 e3bd 6454 a13d 5311 b8bd c1c0 073e
00000110: f37a e73c d487 88bd 6d47 933d 15d5 14bd
00000120: 3489 ca3d 90a2 ab3d 6026 fabc fbe5 f9bb
00000130: 6d8a 933d 7785 1ebe 9e5e 7abc 2d14 903e
00000140: 4452 e7bd 28ee 833e ddfc 28be 1e8e 853e
00000150: 89c8 a93d 3e63 193e 3303 12bd e8f0 4d3c
00000160: 8e4e 43be 9cfe d03c 71a1 1fbe 56b9 ecbd
00000170: 1e8e c93d 068c 7bbe 2497 1bbe ca53 dfbd
00000180: f17a 17be a7af 8ebe d8b2 32be 2793 7fbe
00000190: 9fce 2d3d 9819 20be 0f4a 6abe 8e1b 3cbe
000001a0: 9638 853c 9448 a3bd 00bd 633d 631d 5cbe
000001b0: 2296 5a3e 01b3 383e 7113 39be 1dc3 25bd
000001c0: ddd3 753e d12a ff3d dc94 523d a872 02be
000001d0: 8734 0c3d eace 49be 5da5 903d b491 55be
000001e0: a129 da3c 9575 043d 4bbd 9a3d 1aa9 853c
000001f0: 1f3d 763e 1bfc a4bd 80bc ad3d 63da 163d
-0.23975416 0.039651956 0.1599296 -0.037443463 -0.057335146 0.18367597 -0.06072365 0.005432014
0.11973235 0.17650738 0.04751714 0.04617749 0.13899688 0.018857216 0.08996873 0.24087939
0.21497826 0.030025763 -0.19475073 0.24770369 -0.1348667 0.15360685 -0.11148776 0.084794216
-0.2134553 0.19603795 0.15694083 -0.14281517 0.052255686 -0.08815258 -0.102535464 0.21960555
-0.11327041 0.2217489 -0.28901047 -0.2885104 0.084325455 -0.17905118 0.17204013 0.1878682
0.10011227 -0.12155113 -0.16383293 -0.19946536 0.08488348 0.11072088 0.26869315 0.12490138
-0.11189115 0.12190885 0.15432878 -0.20516242 0.10371417 0.10780881 -0.06288981 0.16056032
-0.013083965 0.070576794 0.21649621 0.17498024 -0.07836634 -0.14974113 -0.061260432 -0.03263283
-0.1109986 0.07877424 -0.08987679 0.13257124 0.028256869 -0.06666532 0.07191358 -0.036336023
0.09889451 0.08380616 -0.030535877 -0.0076262928 0.07204137 -0.154806 -0.015281348 0.28140393
-0.11294988 0.25767636 -0.1650271 0.2608499 0.08290202 0.14979264 -0.035647582 0.012569644
-0.19072935 0.025512032 -0.15588929 -0.115587875 0.0984156 -0.24565133 -0.15194374 -0.10904653
-0.14792992 -0.27868387 -0.17451036 -0.24958478 0.042433377 -0.15634763 -0.22879814 -0.18369886
0.016262334 -0.079728276 0.055600166 -0.21495585 0.21346334 0.18037035 -0.18073823 -0.040469278
0.240066 0.124593385 0.051411495 -0.1273905 0.03422978 -0.19707838 0.070627905 -0.20856363
0.026631178 0.032338697 0.07555636 0.016315985 0.24046753 -0.08055898 0.08483219 0.036829364

embedding.features.0.bias f4 [8]
00000000: 4f29 16be a65d 5abe b3cd a13b cbd6 553d
00000010: f5a3 023e 5855 433e 5f40 253e c355 313e
-0.14664195 -0.21324787 0.0049378513 0.052206796 0.12757857 0.19075525 0.16137837 0.17317872

embedding.features.3.weight f4 [12, 8, 12]
00000000: d0a9 323d 7ea5 b0bd 808c 6bbd bb7c 993b
00000010: 4946 433c ae99 d73c ee40 4b3d e3c0 9abd
00000020: 3e15 043d 629a cebd efa0 4f3b fb53 32bc
00000030: bc79 83bb 425b 7ab9 fd9f 443b 88b9 12bd
00000040: 6bfe 993c 2d04 5cbd e0ac 84bd 244d b23d
00000050: 5727 9d3b 4f12 cd3c 0954 a53d 70c5 a5bb
00000060: a6d9 3f3d 61a4 f9ba 0bb2 c0bc f458 063c
00000070: 385b 2abc 5d10 083c 5013 9e3c 1cd1 b6bc
00000080: 1719 34bd cfda e73d 5ce8 323d 4f0d 15bd
00000090: 6b03 e8bc 8275 8c3c 4689 233d 305a 8d3c
000000a0: 4bfb cbbd 37ec 82bc e8eb 4dbd 7976 19bd
000000b0: 135d 4d3c 63ee 9fbd bcb6 07bd 484b 0dbc
000000c0: 8a4f 363d 5bff 49bb 8ab5 153d 40fc 453d
000000d0: 6820 c4bd 0553 c5bd b052 9a3d 2c40 5cba
000000e0: 4804 f53c 8682 673d 2e35 08bd 68b7 943d
000000f0: 22db ea3c 6606 14bd 8288 eabb 059d a03c
00000100: 2a5d cfbb 3015 963d a77f 69bd f84e 08bd
00000110: 2afb 8cbc b136 6cbc f94c 953b 34f2 f1bd
00000120: cdf7 993d ec32 ccbd 63b9 4bbc 6902 fd3d
00000130: 42f1 943d b196 d23d 56b5 a93d 308c d9bd
00000140: 35ed 4dbc 25b2 10bd 3e7b e9bd 0629 6abd
00000150: edae 1c3e 8db0 5dbd a623 6ebd 7ff5 0fbd
00000160: 80b6 f23c 4dda 54bd 16ac b5bd c81c cb3c
00000170: 53c4 b4bc 9871 983d 86ed e93c 362b 8f3c
00000180: b758 d2bd bd1d c33d 54a3 8fbd 2e66 153b
00000190: b391 8cbd 4d5a 993d c15d 933d d48b 8abd
000001a0: 3af9 5fbd 1142 02be 27d9 52bb cc2d 83bc
000001b0: 90ae 07be 0d38 b3bd c527 423d 0853 81bd
000001c0: 35bd dabd 6bd0 53bd 24ac 5fbd 5628 803d
000001d0: a065 443c dfc4 ccbc de7f 843d 0dcc b63d
000001e0: ba6c 69bc 155d 31bd 646f 42bc 9291 903d
000001f0: cb68 af3d c88a 303d 47eb 963d 5c8d 983d
00000200: ed92 a1bc 5773 cfbd cb4c 7d3d 1fe3 f73b
00000210: efe5 e2bd 2749 373d 835f c33d eaeb 35bd
00000220: a566 953c 1630 42bd 467b 933d 894b 9dbd
00000230: 2cf1 98bd 0678 efbc c668 6cbc b384 c63d
00000240: 7dd6 a73d 1866 093e d5d3 1fba 9d1b f13d
00000250: 047b d2bd b224 6e3d 758d b13d d8d8 93bb
00000260: bcc1 e2bd 9d48 9eba d06a a5bd cbbe 283e
00000270: 4ef5 17bd abcf 6b3b caf8 a13c 667d 943d
00000280: a0ed 92bd 74f8 88bc 80f7 843d f207 21bd
00000290: 0cd1 893d 9008 32be 535e 0cbe 5cac 38be
000002a0: 74b8 a73d c9ab b9bd ffc5 03be ad09 90bd
000002b0: ddba 293d 5d5a 00bd ff97 c83c 65a3 6e3a
000002c0: 9a0c dd3d b84f 20bd 7b2d acbd e651 98bd
000002d0: dd74 04bd 5b9b c33d 46b1 df3d 2847 48bd
000002e0: 8f8f 34bd 9323 b9bd 2060 c43c 69dc 213d
000002f0: d97d 743d a018 1dbd 60c4 7ebd 21ea d83d
00000300: 89cb 8b3d 0e26 80bc 8087 44bd a59b ef3c
00000310: 1b74 8fbd 9ebb b0bd 7e3f 73bd a21b 0d3d
00000320: ad12 303d fea4 de3d 1b6c 8a3d 2c28 edbd
00000330: d39f 9dbd ffc5 f3bd c58f 89bd a723 68bd
00000340: 1f6c 2f3d 4e80 3b3d 8ee2 0e3d aac9 28bd
00000350: cbac 9a3c 4c85 eebd 4c34 8c3c 2a4f 4bbd
00000360: ce1f 95bd 535b dcbc 9a59 e1bc d0e8 b7bd
00000370: 11d1 623d b8c7 cb3c 2944 30bd 603d a2bc
00000380: 7ec8 a7bd 7949 35bd fb05 c93d ec8d 343d
00000390: 09bd 4d3d af45 99bc 3940 63bd f85b a03d
000003a0: 5731 413d 0a54 29bc f70a 07bd 5a90 b43d
000003b0: 37dc 3e3d 870a 48bc 322b 29bc 37be cabd
000003c0: 6170 f43b b655 ba3d 1a3b 103d b30a 7fbb
000003d0: bf4d 1cbd e76d 40bc 0e25 f0bd bee7 b83d
000003e0: 12f5 e23c 286d 55bc 3e88 a13d 6653 e7bd
000003f0: 800b d7bd d7ac a23c 5a98 c53d 8e1e 15bd
0.043618977 -0.08625315 -0.057507038 0.0046840585 0.011918613 0.026318397 0.04962247 -0.075563215
0.03224682 -0.1008804 0.0031681617 -0.01088428 -0.0040123146 -0.00023875854 0.0030002587 -0.035821468
0.018798074 -0.05371492 -0.06478286 0.0870612 0.0047959494 0.025033144 0.08072669 -0.005058937
0.046838425 -0.0019046181 -0.023522398 0.008199919 -0.010397725 0.008304683 0.019296318 -0.022316508
-0.04396924 0.11321031 0.043678626 -0.036389645 -0.028321942 0.017145876 0.039925836 0.017254919
-0.0996004 -0.015981777 -0.050273806 -0.0374665 0.012534398 -0.078091405 -0.033133253 -0.0086239055
0.044509448 -0.003082237 0.036550082 0.048336267 -0.095764935 -0.09634975 0.07535303 -0.00084018963
0.029909268 0.05652096 -0.03325384 0.072615445 0.028668944 -0.036138915 -0.0071573863 0.019606123
-0.0063282447 0.0732826 -0.057006504 -0.033278435 -0.017209608 -0.014417336 0.004556295 -0.11813775
0.075179674 -0.0997065 -0.012434336 0.12353975 0.07272579 0.10282648 0.0828654 -0.10622442
-0.012568762 -0.035326142 -0.1140046 -0.05716803 0.15301104 -0.05412345 -0.058139466 -0.035146233
0.029628038 -0.051966 -0.088707134 0.024793997 -0.022066271 0.07443541 0.028555643 0.01747666
-0.10270827 0.095271565 -0.07013574 0.00227965 -0.068637274 0.07487927 0.071956165 -0.06764951
-0.05468104 -0.12720515 -0.003217289 -0.016013049 -0.13250184 -0.08750925 0.04740121 -0.06314665
-0.106806196 -0.051712435 -0.054607525 0.062576935 0.01198712 -0.02499622 0.06469701 0.08925638
-0.014247114 -0.04330166 -0.011867378 0.07059015 0.085649095 0.043101102 0.07369094 0.07448837
-0.01972338 -0.10129421 0.061840814 0.0075649167 -0.110790126 0.044747498 0.09539702 -0.04441444
0.018237421 -0.04740914 0.07201247 -0.07680423 -0.07467875 -0.029232036 -0.014429277 0.09693279
0.08195207 0.13417852 -0.0006096934 0.11772845 -0.102773696 0.058140464 0.08669559 -0.004511934
-0.11072108 -0.0012076084 -0.080770135 0.16479032 -0.037099175 0.0035981934 0.019771952 0.0725048
-0.071742296 -0.016720034 0.064925194 -0.039314218 0.06729326 -0.17386079 -0.13707857 -0.180345
0.081894785 -0.090659685 -0.12868498 -0.070330955 0.041437972 -0.031336177 0.02448654 0.0009103327
0.10793419 -0.039138526 -0.08407112 -0.07437496 -0.032338012 0.09551116 0.10922484 -0.048895985
-0.04408222 -0.09039988 0.023971617 0.03951684 0.05969033 -0.038353562 -0.062198997 0.105915315
0.068259306 -0.015643146 -0.047980785 0.029249022 -0.07004567 -0.08629535 -0.059386723 0.03445018
0.04298656 0.108713135 0.06758901 -0.11579928 -0.076965 -0.11902999 -0.06716875 -0.056674626
0.04282772 0.045776658 0.034884028 -0.041207947 0.018881222 -0.11646518 0.01711478 -0.049636044
-0.07281457 -0.026899016 -0.027508546 -0.08979952 0.055375163 0.024875507 -0.043033753 -0.019804657
-0.08192538 -0.044259522 0.09815594 0.04408066 0.050229106 -0.018709986 -0.05548117 0.07830042
0.047166195 -0.010334978 -0.03296944 0.088165954 0.046596732 -0.012209541 -0.01032524 -0.09899562
0.0074596857 0.09098379 0.035212614 -0.003891629 -0.038160082 -0.011744953 -0.117258176 0.09028576
0.02770475 -0.013026513 0.07887314 -0.11295204 -0.1050024 0.019857807 0.096481994 -0.036406092

embedding.features.3.bias f4 [12]
00000000: 0180 babd 83a0 0cbc 49cd a43d 5d86 a93b
00000010: 730f cebd b2a9 9cbd 8733 3b3c 8f88 6b3c
00000020: 9d5a 7b3a de20 e73b d9eb 2e3c 4f2d 64bc
-0.09106446 -0.008583191 0.080469675 0.005173488 -0.100615405 -0.07649554 0.011425859 0.01437582
0.00095883926 0.0070534786 0.010676348 -0.013926818

embedding.features.6.weight f4 [32, 12, 9]
00000000: 7cc6 9abd 8c30 97bd 4f89 6e3d 5296 fbbc
00000010: 662d b33b 9889 efbd fa9c 9dbd 8b2d ef3c
00000020: 71de 06be 117a 303d 021e aabb 947d bfbc
00000030: 6157 38bd ed3b e7bd c8c9 d63c 7620 90bd
00000040: a723 87bc 6a07 ae3b fa28 42bc 5af9 2fbd
00000050: 10d1 ec3d 8cde d03d f875 8e3c bb6e 4bbd
00000060: e0ab a7bd f011 b1bd 8293 bcbc dd21 68bc
00000070: 003f 8fbd f176 7c3d a368 ea3d bda2 d1bd
00000080: 0e1b 25bd 7e69 713d 3107 28bd 0ff4 89bb
00000090: 9322 21bd e7dc 233d 793c 013d 50b8 943d
000000a0: 9144 763d 8d5f a03d 3967 dcbc 4513 e63d
000000b0: 3f37 b439 bb5b 86bd 1874 1a3d aa26 d8bd
000000c0: 6a2a edbd 7721 ca3c d356 aa3d 9f43 a53d
000000d0: cecb 7b3c 3790 c13d 75e4 a4bd d59e 943c
000000e0: ff8b 953d e34e 39bd 4179 92bc 1d6f 9e3d
000000f0: b07f c83d 60e1 03bd 7d92 a73a eed7 09bd
00000100: 3aa7 b8bd 5a01 82bd 3634 063c e7a3 b2bd
00000110: 05a8 ac3d 0200 893d 3ffc 493d 016c 6b3d
00000120: d71f 4c3c 68f7 aebd 684c 3bbd 2fb8 2d3c
00000130: 09c4 0bbe 681e e3bd 4be0 1e3c c542 523d
00000140: 1fd0 49bd d551 8e3c 7944 863d 1eb4 b7bc
00000150: 2980 28bd 1f1a a43c 44eb ff3c da95 80bd
00000160: 31d6 c53d af84 353c 1939 7b3d 9327 0ebd
00000170: 1cb6 6e3d 449c 183d 2d06 9b3c 67fa 23be
00000180: 6d8c 46bc 840f d9bd 9500 52bd 2d31 7c3d
00000190: 2652 0fbd cbcc 97bd 33f2 c8bc e654 d0bd
000001a0: 0b33 a83b 97e0 1dbd 78c2 af3d 6bbc 9d3d
000001b0: 32bc ac3c 4287 cebd 83ee 96bd 07a5 083c
000001c0: ef7c babc 83d5 babc b3b9 82bd 3975 68bd
000001d0: e365 a53d 71a0 8c3c ec4c 353c 658a 523d
000001e0: c668 6cbc 248c 91bc d334 79bb 54f2 b33a
000001f0: 9cf3 f7bc c815 363d 7155 94bc 4e86 95bd
00000200: 10e7 04bc 80d0 553d 95dd ff3c 3c1c a33c
00000210: 7de3 6dbc 78ff 47bd fd0e 973d 9a7b aabc
00000220: 46a9 353d 41ae a1bc 994c 0a3d e8a6 dcbc
00000230: 6001 833d a1e7 05bd 8b54 f7bc f88a 9a3d
00000240: f9cd a93b 2b68 70bb 5568 10bc 5b0d c83d
00000250: e368 01bd 7826 dbbd f35e 1cbd 8eaf 873d
00000260: b3a5 2abd 6a75 f7bc 13fb c6bc f917 dfbd
00000270: c8b6 d5bc 6b54 ccbc 78db 93bd 038a 4b3d
00000280: cea7 443d 4257 febb 0e0e 85bd 029c 033d
00000290: 0bc0 b73d 1432 933d bae7 d1bd 539d 003d
000002a0: a577 02be 1762 783d 062f f43c c904 05be
000002b0: f49a 82bd 8888 b43d 1c66 a13d 051f 3b3d
000002c0: 63c4 88bd 0486 153d 26df 5f3b 4c75 263b
000002d0: 1d0c e6bd 407e 2b3d ba09 61bd b425 bf3d
000002e0: fb82 bfbc 3fad 38ba fd60 69bd dc22 1b3e
000002f0: 100f eb3d 18e1 b4bd dacd 37bd b312 62bd
00000300: 0c97 8b3d 1631 3ebd 90a6 2dbd 7b81 bc3d
00000310: 0788 ad3d 163e d03d dea8 87bc 9a42 1abe
00000320: 7ec3 cabd 6134 e0bd b459 18be b816 173d
00000330: 55d8 dd3d 1540 943d 488d ac3c 001b 8cbd
00000340: ebb6 283d d1b7 413d 5221 263d 05e9 673d
00000350: 7cc5 aabc a3a1 c2bd 59c5 603b baac 74bd
00000360: 21f3 17be a5b8 97bd 0380 623d d45b 9abd
00000370: 26dc ecbd 18bc acbc 8f5b 563d 3611 d13d
00000380: e3f5 04bc 9aa4 2c3d 9bcb 0f3b 5f08 abbd
00000390: 99ac 853d 0587 b0bc 3c81 cf3c fd15 4bbd
000003a0: 2011 43bd 3198 0abc e45b 6dbd 1de8 b6bd
000003b0: 498d e9bc 329b 2bbc 26a4 a33d 9269 833d
000003c0: c4fe 4b3d fe6f f83c 56ee 893d a027 8fbd
000003d0: 6cf5 dbbc 8de5 adbd 985e d2bd 7613 9ebd
000003e0: 198f d1bd b632 3a3c 98de b538 162d 38bd
000003f0: 20ad 163d 1f61 bf3d 3772 423c 4d35 583d
-0.07557389 -0.073823065 0.058236416 -0.030711327 0.0054680584 -0.11696166 -0.076959565 0.029196521
-0.13170792 0.04308516 -0.0051915655 -0.02337531 -0.045005206 -0.11290727 0.026219264 -0.070374414
-0.016496493 0.0053109424 -0.01185059 -0.04296241 0.11563313 0.101986974 0.017390236 -0.049666148
-0.081870794 -0.086459994 -0.023019556 -0.01416823 -0.06994438 0.06163687 0.11445739 -0.10236118
-0.040309004 0.058938496 -0.041022483 -0.0042100023 -0.039339613 0.04000559 0.03155181 0.07261717
0.060123984 0.07830725 -0.02690469 0.11234144 0.00034373437 -0.06560465 0.037708372 -0.105542496
-0.115803555 0.02467416 0.08317342 0.08069538 0.015368415 0.09451335 -0.08051387 0.018142143
0.07302093 -0.045241248 -0.017880084 0.07736037 0.097899795 -0.032197356 0.0012784746 -0.033653192
-0.09016271 -0.06347914 0.008191159 -0.08722668 0.08430485 0.066894546 0.049312826 0.057476047
0.012458763 -0.08543283 -0.045727164 0.010602995 -0.13649 -0.11089784 0.00969703 0.051333208
-0.049270745 0.017373005 0.06556029 -0.022424754 -0.041137848 0.020031987 0.031240113 -0.06278582
0.096599944 0.0110789975 0.06133375 -0.03470571 0.05827914 0.0372584 0.018923843 -0.1601349
-0.012118441 -0.105986625 -0.051270086 0.061570335 -0.034990452 -0.07412108 -0.024529552 -0.10172443
0.005133038 -0.038544264 0.08582014 0.077019535 0.021085832 -0.10084392 -0.07369711 0.008340127
-0.022764651 -0.022806888 -0.063830756 -0.056752417 0.08076074 0.017166348 0.011065703 0.051401515
-0.014429277 -0.01776702 -0.003802587 0.0013728836 -0.03026753 0.044454366 -0.018107148 -0.07301007
-0.00811173 0.052200794 0.031233588 0.019910924 -0.014519569 -0.04882762 0.07375906 -0.020810891
0.044350885 -0.019736411 0.033764455 -0.026935056 0.06396747 -0.0326916 -0.03019168 0.075460374
0.0051820246 -0.0036683183 -0.008813937 0.09768172 -0.03159417 -0.10700697 -0.038176488 0.06625281
-0.04166193 -0.030207355 -0.024289643 -0.10893244 -0.026088133 -0.024942597 -0.07219595 0.049692165
0.048011594 -0.007761867 -0.06496821 0.032131203 0.08972176 0.07187286 -0.102492765 0.031400036
-0.12740953 0.06064042 0.029807579 -0.12990107 -0.06377211 0.08815104 0.07880804 0.04568388
-0.06678083 0.03650476 0.0034160106 0.0025399504 -0.11232779 0.04186845 -0.054940917 0.09333363
-0.023377886 -0.00070448586 -0.05697726 0.15150017 0.11477482 -0.08831996 -0.04487405 -0.055193614
0.06815919 -0.04643353 -0.042395175 0.09204384 0.08473211 0.10168092 -0.016560014 -0.15064469
-0.099005684 -0.109474905 -0.14877969 0.0368869 0.10832278 0.07238785 0.021063462 -0.06841087
0.04119007 0.04729444 0.04055912 0.05661871 -0.020846121 -0.09503486 0.0034297316 -0.059735037
-0.1483884 -0.07408265 0.055297863 -0.07537046 -0.115654275 -0.021085784 0.05233341 0.10208361
-0.008115265 0.042149164 0.0021941427 -0.08351206 0.06527061 -0.021548757 0.025330178 -0.049581517
-0.047623754 -0.008459137 -0.05794896 -0.08930991 -0.028509753 -0.010474013 0.07990293 0.0641662
0.04980351 0.03032684 0.06734912 -0.0698998 -0.026850425 -0.08491049 -0.102719486 -0.07718556
-0.10232372 0.0113646295 8.672214e-05 -0.044964872 0.0367862 0.09344696 0.011868051 0.052785207

embedding.features.6.bias f4 [32]
00000000: b5de 933c a712 153d 8f8c db3c 85ba fc3b
00000010: 116d be3d daa3 883d 48e5 0b3d 3b49 1c3d
00000020: 6189 1a3d c12d 24bd 296b 613d b536 813b
00000030: ccae 38bd 61dd 87bd 237c 0cbd ec44 3dbc
00000040: f168 42bd f87d 6abd a6b1 d5bd 314c 9abd
00000050: 450b 9ebd 448b 71bd 6219 9dbd f09b a2bd
00000060: 86f6 2cbd 2832 f33c f2d9 58bd 6ecd a03d
00000070: cfa6 2b3c e5c3 df3a 00e2 9e3d 6111 643c
0.01805053 0.03639474 0.026800422 0.0077126645 0.092981465 0.06671877 0.034154207 0.038155776
0.03772867 -0.040082697 0.055033837 0.003943289 -0.045088574 -0.066340216 -0.034298074 -0.011552077
-0.04746336 -0.05724904 -0.104342744 -0.075340636 -0.07716993 -0.058970705 -0.07670857 -0.07939899
-0.04222729 0.029687002 -0.052942224 0.078516826 0.010476782 0.0017071931 0.0775795 0.013920159

embedding.features.9.weight f4 [64, 32, 7]
00000000: 8dd5 c1bc 9e26 fa3b 46f2 063d bc21 923d
00000010: af79 e2bc db1e 823d d470 623c fa82 933d
00000020: a98b 37bb be60 003c 9348 063d 8b96 7cbc
00000030: 15b0 073d c27c 5e3c dab4 56bd aff5 373d
00000040: 0b8d 9c3d 08fd 1abd 9b01 eabc 764b b73c
00000050: dd4e 433b 6d87 973d d5ae 85bc 7fc8 d3bc
00000060: 79fd 14bc cf13 60bd d117 7bbd a3fd a93d
00000070: 10c5 a03c 2e7a f1bc b1df 37bb 8105 a63d
00000080: b100 023d 5b20 f83c b925 c7bc 03f2 f8bd
00000090: 92c6 babd b584 bf3c 74c0 a13d 0157 583d
000000a0: 65ec 77bd 606d dcbd 0afa a7bd d213 79bc
000000b0: 63d7 abbc 6417 9439 214c 523b 6d3a 5b3d
000000c0: e840 713b 7fe5 013d 8c81 a7bd dc35 60bd
000000d0: 33ee 873d 7599 c6bb dadf d33c af4d febc
000000e0: 818f 4dbc 972c a9bd b62b 533c 2cbe 77bd
000000f0: 85db a63d 40e1 033d 22e8 ba3c 384c 2bbd
00000100: fd84 a6bd a393 f9bb 27fe 85bd 1a12 e7bb
00000110: 47b5 40bc 55ab b7bb e1c4 4b3c 7fb3 17bc
00000120: 3886 583d 5c03 f53c 2400 823d ae8f 59bd
00000130: 9900 07bd e5bc 94bd c23d 02be 6691 66bc
00000140: 0b5d 193d 5c9a 433d e7e4 31bd 577c 793b
00000150: 65d3 02bd a400 e2bd 4521 75bd e5eb 4b3d
00000160: d9cd 4e3d a1c7 e5bb 2932 e33c b9e5 9abd
00000170: 52be 6fbd 0e3e 0fbd fa9d a4bc 49a8 58bd
00000180: b301 7ebd 7b79 83bd 2f97 fe3c aa3b 623c
00000190: d655 813d dd82 693d 0bd9 35bc 4b2c 0fbd
000001a0: 74ee 81bd b6dc 293d d08f 9b3b 6bbe 023e
000001b0: b468 36bd 4e4e aabd 0e0a 33bd fb59 bf3c
000001c0: bd2c 5bbd 5019 d13b 8ecf 683d 3194 21bd
000001d0: bb6e 3fbd e82d d43b 6ad5 acbd f51e 683c
000001e0: 1ede 8a3d ea5f 723b 2b86 e93b d55e 863d
000001f0: c827 9dbd f49b 033d c99d 93bc 8182 963c
00000200: 6402 e0bc 6548 623d 0d3b 81bd 8d45 083c
00000210: 4283 5c3c c52d c93c 07bf 0e3d d314 943d
00000220: 04b6 413d 74d8 ccbc 0376 79bc 1c7c be3c
00000230: a521 91bd e579 9cbd 0dc3 41bd 5104 993d
00000240: e570 123d 3927 f73c cf81 653c e3b9 46bc
00000250: 59c5 52bc a9ea 27bd d20d 5c3d ad87 66bb
00000260: 6c22 ddbb 45fc 6dbd 6eb5 a43d 4eda cdbc
00000270: 5988 a93d c3cd c0bb 18f2 0abd 7785 2dbd
00000280: 7bf9 8e3d 4671 a9bd 51e0 28bd 809a 5c3c
00000290: 7db6 98bd 59b4 113d b753 01bb b33b abbd
000002a0: 876a 80bb a85b f1bd 31e8 a7bc 078c 19bd
000002b0: fda5 323d e995 96bd 9826 a9bd f12d 3dbd
000002c0: 4774 83bd 424d 4cbd 31e0 153b ddd4 823d
000002d0: 74fe edbc 4b0f 7cbd 9b16 f83d 6388 823d
000002e0: 3c71 4b3d ca10 90bd bbb3 5bbd 8eb1 a2bc
000002f0: 216a fc3c 00d5 babd b5a2 57bd 7a1d 54bd
00000300: 1cfa 3c3c e7ef 07bd ada1 2f3c 959f 22bd
00000310: 8a6a d9bd 4429 02be 9d66 69bc 6183 6ebd
00000320: 9713 633d 6026 55b9 0ccb 293d db00 1fbd
00000330: e324 77bc ef46 723d 0ce0 ae3a 314a 0b3c
00000340: 2cd1 053d 51b7 27bd dd92 1bbd bf48 7e3c
00000350: 46cb c9bb 20c8 c635 0bf4 4a3c 2efa b3bc
00000360: 3b81 39bd dd82 debd 7890 bcbd 8aa7 11bd
00000370: 7c44 f8bd 9fcc 91bd a1a4 84bd fa1d f33c
00000380: d181 7bbd 57c7 55bd 3ab6 7fbd 0f7b 49bd
00000390: a919 823d 67bd c3bb 019d 873d 78ba 253d
000003a0: 9b73 473c c469 563d 2e38 2dbd d63f f3bc
000003b0: 1cd3 ebbc 46f5 0c3d 0be8 a4bb 2ae2 d53c
000003c0: ec03 c43d 4c45 983d de15 97bd 39f4 efbc
000003d0: 6052 513c 1b59 073d c007 5cbd 3f0f 5c3d
000003e0: b4b2 e1bc 29cf 9dbd 24c5 f7bc 1897 85bd
000003f0: a55f 70bc e641 993c 51ab 49bd 9cfd a2bb
-0.0236614 0.007633998 0.032945894 0.071353406 -0.027645914 0.063535415 0.013820846 0.07202716
-0.0028006828 0.007835565 0.032784056 -0.015416752 0.03312691 0.013579549 -0.052418567 0.044912037
0.07644089 -0.037838966 -0.028565219 0.02237485 0.0029801645 0.07398877 -0.016318718 -0.02585244
-0.009093636 -0.05470639 -0.06130201 0.083003305 0.019625217 -0.029477205 -0.0028056914 0.081065185
0.03173894 0.030288866 -0.02430998 -0.12155535 -0.091199055 0.02337871 0.07898036 0.05281735
-0.060528178 -0.10763049 -0.08201988 -0.015202479 -0.020976728 0.00028246187 0.0032088833 0.053522516
0.0036812369 0.031713005 -0.08179006 -0.054738864 0.0663723 -0.006060774 0.025863577 -0.031042902
-0.012546421 -0.08260458 0.0128888395 -0.060484096 0.08147339 0.032197237 0.022815768 -0.041820735
-0.08130834 -0.0076164766 -0.06542616 -0.0070517184 -0.01176197 -0.005605141 0.012437076 -0.009259104
0.052862376 0.029908828 0.06347683 -0.05311554 -0.032959554 -0.07262591 -0.12718871 -0.014072752
0.03744225 0.04775463 -0.04343119 0.0038068497 -0.031939883 -0.110352784 -0.05984618 0.049785513
0.05048928 -0.007012323 0.02773388 -0.07563347 -0.058531113 -0.03497129 -0.02009486 -0.052894864
-0.06201334 -0.06419655 0.03107795 0.01380817 0.063152 0.057009567 -0.01109911 -0.03495435
-0.063443094 0.041470252 0.0047473684 0.12767951 -0.044533446 -0.08315717 -0.04371076 0.023358336
-0.053509463 0.0063811913 0.056838565 -0.039447967 -0.04673646 0.006475199 -0.08439143 0.014167537
0.06780647 0.0036983439 0.00712659 0.065610565 -0.07673603 0.03213115 -0.018019574 0.018372776
-0.02734489 0.055244822 -0.06310091 0.008317363 0.013459029 0.024557957 0.034850147 0.072305344
0.047292724 -0.025005557 -0.01522589 0.02325254 -0.07086495 -0.07640437 -0.047305156 0.074715264
0.035752196 0.03017007 0.014008 -0.01212928 -0.012864434 -0.040995274 0.053724118 -0.0035176084
-0.006748488 -0.05810191 0.080424175 -0.02512851 0.082779594 -0.0058839037 -0.033922285 -0.04236361
0.069811784 -0.08273558 -0.04122955 0.01346457 -0.07456682 0.035572384 -0.0019733736 -0.08360996
-0.003918949 -0.1178506 -0.02049646 -0.037487056 0.04361533 -0.07352812 -0.08259314 -0.04618639
-0.064186625 -0.049878366 0.0022869224 0.06388257 -0.029051997 -0.061538022 0.12113687 0.0637367
0.049668536 -0.07034452 -0.0536382 -0.019860055 0.030812325 -0.09122658 -0.052645404 -0.051785924
0.01153424 -0.033187773 0.010719699 -0.03970297 -0.10616024 -0.12711054 -0.014245656 -0.05823076
0.055438604 -0.00020327559 0.041453406 -0.038819175 -0.015084478 0.05914968 0.0013341918 0.008501575
0.032670185 -0.04094631 -0.037981857 0.015520274 -0.0061582653 1.4810394e-06 0.012387286 -0.02196988
-0.04528926 -0.10864804 -0.09207243 -0.03556017 -0.12122437 -0.071191065 -0.06476713 0.02967738
-0.0614031 -0.05219206 -0.062429644 -0.049189623 0.063525505 -0.0059735063 0.06621743 0.040461034
0.012173559 0.05234696 -0.042289905 -0.029693525 -0.028787188 0.0344136 -0.0050325445 0.02610882
0.095710605 0.07435092 -0.07377218 -0.02929126 0.012775987 0.033043962 -0.05371833 0.053725477
-0.027551033 -0.07705528 -0.030245371 -0.065229595 -0.014671241 0.01870818 -0.049235646 -0.0049740802

embedding.features.9.bias f4 [64]
00000000: 3925 9a3d 2c0a 983d aa9d b2bd 0c1b 01bd
00000010: d58d 73bc fc92 933c a66a 5d3c 8cfe 273d
00000020: 7242 093d 60d4 673d a4e4 27bc 8ab7 85bd
00000030: b99c 513d b42d 7abd a01d afbd ff85 90bd
00000040: 4207 91bd 60b8 34bd 0714 403c c4c7 92bd
00000050: b9bf 1b3d edfb 38bc 0d17 93bd 4c15 593d
00000060: 841b cbbc acdd ce3b 7b9a 99bd 3ba5 2abd
00000070: d481 453d 9bb1 0f3d 3595 573d 0140 30bd
00000080: bbed 9d3d 6e13 383d 3d14 81bd 5488 51bd
00000090: 4b37 f9bc 9d8f ed3c d59d 7cbd 9d0d 77bc
000000a0: de98 84bb c8b3 c53c 31e1 82bd 367e 0dbd
000000b0: 9fbc 3abd d68a 92bd e3b8 5e3d 10fb 2a3d
000000c0: 0759 88bc 4790 59bd df80 a13d 69c8 28bd
000000d0: c170 2ebc dc69 47bd 635a e1bc 44ce 48bd
000000e0: e098 663c 7f7d 583d 1e2d b1bd 2525 bdbc
000000f0: 1aac 293d 62a5 63bd e512 9a3c a02f 4fba
0.07526631 0.07423815 -0.08721478 -0.031519935 -0.014865358 0.018014424 0.0135141965 0.04101424
0.033510633 0.05659902 -0.010247383 -0.06529148 0.051174853 -0.061078742 -0.085505724 -0.07056808
-0.070814624 -0.044121146 0.011723525 -0.071670085 0.038024638 -0.011290533 -0.07182131 0.052998826
-0.024793394 0.0063130464 -0.07500168 -0.041661482 0.048219517 0.035081487 0.05263253 -0.04302979
0.07711359 0.044940405 -0.06302688 -0.051155403 -0.030421874 0.028999144 -0.061673958 -0.015078929
-0.0040465435 0.024133578 -0.06390608 -0.034544192 -0.04559004 -0.07155387 0.05437554 0.041743338
-0.016644014 -0.05311611 0.07885908 -0.04120675 -0.010647 -0.04868494 -0.02750892 -0.049024835
0.014074534 0.052854057 -0.086511835 -0.023089001 0.041423894 -0.055577643 0.018807838 -0.000790352

embedding.features.12.weight f4 [64, 64, 5]
00000000: 5454 573c 0c86 2a3d 0973 6c3c 2026 483c
00000010: 9b66 d8bb cc58 36bd e1d2 f4bc 77f9 08bd
00000020: a828 4f3c 5bbd 4bbc 1df2 3abd dea9 10bd
00000030: c836 c43c 3dbf e6bc c570 753c 0419 5d3d
00000040: 85cc 15bb 20c8 843c 2fd2 96bc 8360 febc
00000050: edd2 4e39 d713 7e3d 5ae3 673d c7b3 f43b
00000060: f562 2fbd d1f7 4abd c534 093d 0e26 79bd
00000070: 716a 51bc e939 97bd 188f 7fbd 0526 0db7
00000080: 3314 aabc 97ec f6bc 198a 57bc d74b cebc
00000090: 1006 02bd 5ec6 a73c 3418 763d ceb2 3b3d
000000a0: 6d3a 63bd 4f02 5b3d fcb7 ecbc bc61 acbc
000000b0: fa10 623d 31d3 e9bc 62de bc3a 96a4 dc3c
000000c0: db50 a8bc 2785 6d3c 313d 8abd 378b 12bd
000000d0: 9c1d 203c e432 bb3c 1f51 423d c824 b2bc
000000e0: b313 993c 3f3a bfbb 167f 3fbd 68d4 51bd
000000f0: 92d5 20bd b048 60bd fe09 9ebc c88f 1f3c
00000100: 5b23 92bb 0230 5cbd e47f 94bd 6174 033d
00000110: a246 adbb 5654 443d 158b 0b3d a4d0 67bd
00000120: 4e88 233c d092 11bb f4e9 e6bc e816 08bd
00000130: 4cf1 e33c 4a05 743c 58af 7abc a1de f6bc
00000140: 901b 54bd 5133 a13c 58fe 2fbd 7f36 0cbd
00000150: e462 c93c 8420 05bd 3ce5 b6bc 7ac6 f6bc
00000160: c68d e43c 96a0 1ebd 90a6 5a3d 0978 503d
00000170: dfb3 b23b 53c3 223c 3e26 1abd 6f11 063c
00000180: 5fb2 f83b 837b 6cbd 034d 1abc 2e22 35bd
00000190: ebce a83d e7a4 2e3d 8d6a 28bc 2f8c 243d
000001a0: a93d 673d 42ae 343c a25f 8b3a 49e8 0339
000001b0: d2ff 00bd 8bf3 92bc 192c eaba 0f99 dfbb
000001c0: 5a95 4e3d e212 3dbd c6bb fdbc ec08 b339
000001d0: 6db6 663d 2b03 40bd dc70 4fbd 4b3f 0ebd
000001e0: 92e7 0e3c a163 d2bc 9d6f afbc 647d c2bc
000001f0: bcfc 653c dd64 01bd e983 843c c19b f33c
00000200: 5461 96bb b3f0 1bbd e5e9 a0bc 1c88 2fbd
00000210: d232 4d3c 5564 0a3d a8a4 2a3d 13cd 8fbd
00000220: a5a0 243d e9e8 ccbc 1ea7 153d 55d0 f63c
00000230: e843 39bd 675b 9ebd aac1 9c3c eb2c a8bd
00000240: 6f43 bebd d4d3 1f3d 9432 0b3d cd1e a9bc
00000250: a1c8 9b3c 5ca6 203d 76d5 73bd 0a67 5d3d
00000260: 1657 abbd 5866 b9bd 87d6 42bd ce48 e7bb
00000270: 429b 453c 1772 87bc 8b43 ce3c 9e4d 65bd
00000280: c7e9 5ebd cd54 2d3d c0d1 fa3c a316 86bd
00000290: 0ee9 f6bc eaf9 9cbd 9673 1ebd 759b cd3b
000002a0: 222b 18bc 60f9 9ebd 36d4 3d3d 3cb7 04bd
000002b0: f5bf d1bc c063 9d3b 3014 babb 1e00 723b
000002c0: b846 6e3c f463 b1bc 345d 2d3b 53d1 203d
000002d0: 2161 a33c 9448 8d3d 9994 8d3d 6f9c d93c
000002e0: ba80 223c 00a8 053c 21c2 1cbd 7b7e 0abd
000002f0: 88d8 483d 1411 d23c bf19 e73c 5307 12bb
00000300: 4496 eabc 5b35 053d 54ca e5bb 54b7 093c
00000310: 0c90 43bc 9a54 ce3c a3e8 0e3d 7eb3 8f39
00000320: ebf7 2bbd fbd2 63bd 20c8 debc 5282 12bd
00000330: 67e5 96bc 1fea 55bd 0302 43bc e71a fc3c
00000340: 9639 a2bc de29 943c 510d 263c dbe2 cd3c
00000350: a80f 883a 48f8 41bc 53ba 2ebd 5be5 cb3c
00000360: 0564 ae3b d155 03bd d69f 453d f0a7 0dbd
00000370: a0e8 98bb a96d 22bc 4734 ccbc c5a3 25bc
00000380: bf65 febc 5518 bebc 167d 9bbd b1b2 d43c
00000390: 985d 0abd acdc 03bd 0eaa e2bc b9da a7bc
000003a0: 84e4 71bd c186 a1bc 3b0a 1cbd ebd0 bbbb
000003b0: 77f9 813d a786 19bd d020 893d 6f44 8a3d
000003c0: 5f0f 3cbb af63 eebc b82e 3d3d 4792 abbb
000003d0: 5e2e 6bbd 09f2 d8bc 4100 61bc 5535 ee3c
000003e0: 4742 02bc ee6f d33c 2d36 1abd 3cc2 823d
000003f0: 88a1 a73d 90ca 8abc 7e86 8a3d dec6 183d
0.013142664 0.041631743 0.014431723 0.012216121 -0.0066040284 -0.044518277 -0.029885711 -0.033441033
0.012643971 -0.012435283 -0.045641053 -0.035318248 0.023951903 -0.028167361 0.0149805 0.053978935
-0.00228575 0.016208708 -0.01841077 -0.03105188 0.00019724267 0.06203064 0.056613304 0.00746772
-0.042818982 -0.049552742 0.03349759 -0.060827307 -0.012781725 -0.07384092 -0.062392324 -8.413107e-06
-0.020761585 -0.030142112 -0.013155484 -0.025182648 -0.031744063 0.020480331 0.060081676 0.04582482
-0.05547564 0.053469 -0.028896324 -0.021042697 0.05519197 -0.028543087 0.0014409537 0.02693395
-0.020546367 0.014497078 -0.067499526 -0.035777297 0.009772684 0.022851415 0.047440644 -0.021746054
0.018686151 -0.005835801 -0.046752058 -0.051227957 -0.039266177 -0.05475682 -0.019291874 0.00973887
-0.004459781 -0.05375672 -0.07250956 0.03209341 -0.005287961 0.04793199 0.034068186 -0.05659546
0.009981228 -0.0022212751 -0.02818773 -0.03322497 0.02782502 0.014893839 -0.015300594 -0.030135455
-0.0517841 0.01967779 -0.04296717 -0.03423166 0.024583288 -0.032501712 -0.022326104 -0.030123938
0.027899634 -0.038727365 0.053381503 0.050895724 0.005453571 0.009934264 -0.037634127 0.008182867
0.007589623 -0.057734977 -0.009417775 -0.04422205 0.082425915 0.042637732 -0.01027931 0.040172752
0.056455288 0.011027874 0.0010633359 0.00012579667 -0.03149397 -0.017938396 -0.0017865925 -0.006823666
0.0504354 -0.046160586 -0.030973326 0.00034148188 0.05632632 -0.04687802 -0.05064474 -0.03472833
0.008722203 -0.025682272 -0.021415526 -0.023741432 0.014037307 -0.03159033 0.01617618 0.029737355
-0.004589239 -0.038071346 -0.01964278 -0.042854413 0.012524324 0.03378709 0.041660935 -0.07021537
0.040192265 -0.025013404 0.03653633 0.030128637 -0.045230776 -0.07732277 0.019135315 -0.082116924
-0.09290206 0.039020374 0.033983782 -0.02064457 0.019016566 0.039221153 -0.059529744 0.054053344
-0.0836622 -0.09052724 -0.04756787 -0.0070582395 0.012060942 -0.016533894 0.025178691 -0.055982225
-0.054422166 0.0423172 0.030617595 -0.06547286 -0.030140426 -0.07664855 -0.03868445 0.0062746354
-0.009287627 -0.07762408 0.04634496 -0.03240131 -0.025604228 0.004803151 -0.005678676 0.003692634
0.014543228 -0.021654107 0.0026453258 0.039262127 0.019943776 0.06898609 0.069131084 0.026563851
0.009918386 0.00815773 -0.038271073 -0.033812027 0.049034625 0.02564291 0.028210519 -0.0022282198
-0.028636105 0.032521587 -0.007012645 0.008405525 -0.011936199 0.025186826 0.03488983 0.00027408818
-0.04198448 -0.05562113 -0.027195036 -0.035768814 -0.018419934 -0.05222523 -0.011902335 0.030774547
-0.01980285 0.01808637 0.010135011 0.025132587 0.0010380642 -0.01183898 -0.04265816 0.024889639
0.005321982 -0.032064263 0.048248135 -0.034583986 -0.004666403 -0.00991384 -0.024927272 -0.0101098465
-0.031054376 -0.023204962 -0.075922176 0.025964113 -0.033780664 -0.03219287 -0.027668979 -0.020490037
-0.05905582 -0.019717576 -0.038095694 -0.005731692 0.0634641 -0.03748193 0.066957116 0.06751334
-0.0028695685 -0.029100267 0.046187133 -0.0052359435 -0.057417266 -0.026482599 -0.013732971 0.029078165
-0.007950372 0.025810208 -0.037649322 0.063847035 0.081851065 -0.016942292 0.067639336 0.03729903

embedding.features.12.bias f4 [64]
00000000: 4a2c b93c 03fd 77bc ca1f e93b 3a40 893d
00000010: 3b59 343d fe7d 873c 0e8a 92bc a82d d4bc
00000020: 4d6e fcbc 1b7c afba 346a 76bd 76df 9a3c
00000030: a412 573d 4672 793d fe3f 2cbd 732b 1a3d
00000040: f642 a5bc 4fe4 a7bd 301e 0cbd de7e f3bc
00000050: dda8 163a bf62 77bd c974 92bd 169e c3bc
00000060: cfef 79bd c20c 5e3c 0e0a 463c ae35 30bc
00000070: aaa1 0eba 8e83 7e3c 6556 743d d116 653d
00000080: 7342 2cbc 33ea 553d 3a33 7f3d cac9 a93d
00000090: 8dae 99bc 74e2 a2bd 79f6 b9bc 15d4 90bd
000000a0: d010 863d 6786 7cbd da6d f03c 39b2 cebc
000000b0: ba39 ab3d 4346 803d 8e6a 51bc 8875 443d
000000c0: 3796 863c d4ad e4bc 4945 ac3c d659 6cbd
000000d0: 334d 50bd 0536 c33c 4d42 14bd 1425 82bd
000000e0: fb6b 1cbb 2a6b db3c d408 9dbc d779 323d
000000f0: f691 f23a cb54 7ebd 4f9d 113c 70d8 ae3b
0.022604126 -0.015136006 0.0071143853 0.06701703 0.04403041 0.01653957 -0.017888095 -0.025900677
-0.030814314 -0.0013388427 -0.060159877 0.018905383 0.05250801 0.060899995 -0.042053215 0.037639093
-0.020173531 -0.08197843 -0.034208477 -0.02972358 0.00057472085 -0.060396906 -0.07151181 -0.023879092
-0.061019715 0.013552846 0.012087358 -0.010754986 -0.000544096 0.015534295 0.059652705 0.055929963
-0.01051389 0.052225303 0.062304713 0.08290441 -0.01875999 -0.07953349 -0.022700535 -0.070717014
0.065461755 -0.061651614 0.029349256 -0.025231468 0.0836062 0.06263401 -0.012781752 0.04796365
0.01642905 -0.027914919 0.021029131 -0.05770286 -0.050854873 0.02382947 -0.03619604 -0.06354728
-0.0023868072 0.026784498 -0.019169249 0.043573227 0.0018506635 -0.062092584 0.008887603 0.00533586

embedding.features.15.weight f4 [64, 64, 3]
00000000: 1b53 2dbd 7ccc 683b 79e5 8fbd 8f6d 01bc
00000010: f29d 5fbc fa85 1a3d 8a33 7b3d 6e94 853d
00000020: 4055 b9bd cb9b 2f3d e035 c23a d61f d9bd
00000030: 1b96 19ba d869 923d 3f00 97bd d000 a8bd
00000040: 1ac4 923c 1464 cbbd 6d43 14bc 758d febc
00000050: 5bfc 2abd 60ca 5f3d 0bf9 8ebd 2e6c b1bd
00000060: a910 773d e482 64bc 6881 55bc d1c6 893d
00000070: 4bfd 883d 85f3 ddbd b0dd 623c 8259 67bd
00000080: bf64 4bbd 8789 c4bc bd1b 9ebd 9b93 ffbd
00000090: b8a1 9e3d b748 b73d 8d23 46bc 5eb9 87bd
000000a0: e809 3a3d 0b7d 04bd c2f2 3a3d 0906 173d
000000b0: 1af2 a9bd 1d88 49bd a0a4 6e3d 94ba d8bb
000000c0: 6890 32bc 7c13 5b3b ca62 1a3d a74b f13c
000000d0: d26a 83bc a6c0 723d 2cc5 20bc 68f2 60bd
000000e0: e410 3e3d ab0a e43c 66c3 39bd e4d5 89bc
000000f0: daa9 fe3c 5596 e8bc a666 60bd 019e 7ebd
00000100: c132 5ebc 8aec 89bd e481 383d 0a32 f1bc
00000110: 55a7 86bd 9d14 133d a18f 0f3b 8c36 e23c
00000120: cca4 e8bc 2abe 7fbd c871 013c 033f b6bd
00000130: b449 bdbd 90b1 fdbc ae1d c33c 895b f43c
00000140: 8db1 80bd fd72 36bd 27f0 1bbb 34fc ddbd
00000150: b990 143d a564 543d 614b 733c 9619 df3c
00000160: bf03 d8bc 06bb 98bd ea64 7cbb 5b6e 733d
00000170: a615 04bd f4a6 dc3c 7efb 8e3d bc07 76bc
00000180: fbed 2d3c 23aa 3cbd c8a9 21bd 59cc 96bd
00000190: 5dfc 62bc 9cdc 01bd 43dd 9f3d 0903 3c3d
000001a0: 0ce5 eabc b424 373c bda8 303d 2618 1fbd
000001b0: 2a93 09bd ecbe 8bbc 7930 99bd ed95 063d
000001c0: 50e6 ec3c d0cd 153c 97f8 55bd 78ee a03c
000001d0: 6455 453d a94e dd3c 883f 85bd 8fb2 5bbd
000001e0: fe76 d6b9 57fe 93bd 94a9 49bd f61f bdbc
000001f0: 4ce0 48bd ca30 2e3d 9efb df3b 67ff deba
00000200: 0435 30bd fc7d 09bd 63a1 b5bd 7f02 debb
00000210: e5e9 973c 35bf f9bc 0e69 78bd 46b4 033d
00000220: 8071 c93d 8265 5dbd 44c8 4fbd 4123 56bd
00000230: 8f7f 83bd ff49 75bc 4815 ea3c b004 44bd
00000240: 8e1e 08be 86d1 7bbd 5c98 12be c645 45bd
00000250: 68b0 ad3d 1c8c 823d 7a7f dabc ee44 523d
00000260: ab67 57bd 8318 69bd 0506 9b3d 2c6d 96bc
00000270: e0b3 d8bc ecad 10bd 90f9 f1bb a51d 1ebd
00000280: c3ed b63c 92af 9a3d 21f7 c2bc 2642 bdba
00000290: 0eae 033d 28f4 24bc 67e6 1e3d b4f7 a33c
000002a0: 482f af3c a1e0 213d 10dd 2bbd 0bab 763d
000002b0: ecb7 ba3d 897d 44bd 06c3 f7bc 0b74 17bd
000002c0: 7c69 2c3d cf81 743d 5e21 b3bb 7ccb 8fbd
000002d0: 2285 b23c 49bc c8bd b8ca 87bd 01e2 79bd
000002e0: 8975 35bd 48b4 64bd afb1 963d de43 9e3d
000002f0: 5450 343a fbea 793a 01e9 68bd 4009 4f3d
00000300: 149d 903d 5eb6 76bd 0cf0 293c 805f 04bd
00000310: eecc a4bc 7c00 8bbd 382e 403d 0d7c 05bd
00000320: f78d fc3c b03b 473d 4c52 863d a1f9 fcbc
00000330: 7dc7 b6bc 4ae8 873d d7a8 5abd 5efd 1b3d
00000340: 6111 bebb 57dd b83a 735a 843d 8531 363d
00000350: a8bd 433c 05b0 f6bc 0de8 1cbc 4798 e1bc
00000360: de35 b33c 6b36 fcbc 2b15 2abd 0e39 3e3d
00000370: 6212 0ebd cce1 09bc 8353 01be 310f 103c
00000380: 9313 173d d9e6 d4bc 5983 84bd b58c debd
00000390: 375d 953c db71 fa3b 3f44 d93c e4ad 183d
000003a0: 1e62 473d f0cb e63c cc74 7f3c c2ee 213c
000003b0: bdbc 68bc 8208 283d 89d3 69bd 348b a83c
000003c0: 58bc 523d b8bc e0bc 5eff 3b3c 5a43 97bd
000003d0: 0082 1dbd b330 01bd 8721 f63c 7db6 08bc
000003e0: b768 803c c7a7 db3b 7dd5 553d 22e4 8d3d
000003f0: e356 293d 250c 43bd e7e7 d2bc 7dfd 8d3d
-0.042315584 0.0035522273 -0.0702619 -0.007899656 -0.013648497 0.037725426 0.06132845 0.06522451
-0.09049463 0.042873185 0.0014817081 -0.10601775 -0.0005858854 0.07149094 -0.07373094 -0.0820328
0.017915774 -0.09931198 -0.009049279 -0.031073311 -0.04174457 0.05463636 -0.06981095 -0.08663212
0.060318623 -0.013947222 -0.013031341 0.06727374 0.06688937 -0.10837463 0.0138468 -0.056481846
-0.049656626 -0.02399136 -0.077201344 -0.124793254 0.07745689 0.08949416 -0.012093437 -0.06627153
0.045419604 -0.032345813 0.04564167 0.03687099 -0.0829813 -0.049202073 0.058262467 -0.0066140387
-0.010898687 0.0033428362 0.03769187 0.02945502 -0.016042147 0.059265755 -0.009812634 -0.054918677
0.046402827 0.027837118 -0.045352362 -0.016825624 0.03108685 -0.028391996 -0.054785393 -0.062162403
-0.013561905 -0.06734569 0.04504575 -0.029442806 -0.06574885 0.03590833 0.0021905678 0.0276139
-0.028398894 -0.062437214 0.007900663 -0.08898737 -0.092425734 -0.030968457 0.023817863 0.029828804
-0.06283865 -0.044543255 -0.0023794265 -0.108391196 0.03627083 0.051853795 0.014849515 0.02723388
-0.026368974 -0.07457547 -0.0038512298 0.059431415 -0.032247208 0.026935078 0.06981562 -0.015016492
0.010615821 -0.046060693 -0.039468557 -0.07363195 -0.013854113 -0.03170453 0.07805874 0.045901332
-0.028673671 0.011178184 0.04312967 -0.03884139 -0.033587612 -0.017058812 -0.074799486 0.032857824
0.028918415 0.009143308 -0.052239027 0.01964496 0.048177138 0.027015047 -0.06506258 -0.053637084
-0.00040905917 -0.07226246 -0.049233988 -0.02308653 -0.04904203 0.042526998 0.006835415 -0.0017013372
-0.04301931 -0.033567414 -0.08868673 -0.0067752 0.018544147 -0.030486682 -0.060647063 0.032154344
0.098361015 -0.054051884 -0.050728098 -0.052279714 -0.06420814 -0.014971255 0.0285746 -0.047856033
-0.13292906 -0.061479114 -0.14315933 -0.048162244 0.084809124 0.0637438 -0.026672114 0.051335268
-0.0525891 -0.05690814 0.075695075 -0.018362604 -0.026452959 -0.035322115 -0.0073844865 -0.03860249
0.02233017 0.07553019 -0.02379948 -0.001443927 0.032148413 -0.010067977 0.038793948 0.020015575
0.02138485 0.039520863 -0.04195887 0.060221713 0.091171116 -0.047971282 -0.030244362 -0.0369759
0.042092785 0.059694108 -0.005466624 -0.070212334 0.021791998 -0.098015375 -0.066304624 -0.06100655
-0.044301543 -0.055835992 0.07358109 0.077277884 0.0006878425 0.0009533611 -0.056862835 0.05054593
0.0706121 -0.060232513 0.010372173 -0.03231764 -0.02011725 -0.06787202 0.046919078 -0.032589007
0.030829413 0.048640907 0.06558666 -0.030880751 -0.02231192 0.066361025 -0.053383674 0.038083427
-0.0058004116 0.001410405 0.06462564 0.04448082 0.011947073 -0.03011323 -0.00957681 -0.027538432
0.021876272 -0.030787667 -0.041524094 0.04644113 -0.0346855 -0.008415651 -0.12629513 0.008792684
0.0368839 -0.025988983 -0.06470365 -0.108666815 0.018232925 0.007642967 0.0265218 0.03727521
0.048677556 0.028173417 0.015591811 0.009883584 -0.014205155 0.04102374 -0.0570865 0.02057419
0.05144915 -0.027433738 0.0114744585 -0.07385893 -0.038454056 -0.031540584 0.030045284 -0.00834429
0.015674932 0.00670335 0.05220555 0.069282785 0.041342627 -0.047619004 -0.025745345 0.06933115

embedding.features.15.bias f4 [64]
00000000: ef0d aa3c 3a12 03bb ccaa f83c 9cb7 58bd
00000010: 4d42 92bc ede4 cabb a34b 9cbd 57ca 3c3c
00000020: d10e c63d a368 7d3d 37b4 ac3d 7f91 963c
00000030: 7d5e cb3c c8f2 8abd 4700 b43c 6c3f 863b
00000040: 68f0 8ebd 6a99 88bd be54 14bd 69d7 fdbc
00000050: 60ce 33bd fa6f 80bc aeb6 a8bd d97f a7bd
00000060: 5343 a339 8b22 aa3d df79 06bb de62 87bd
00000070: 934a 743d 206a 1abd 9198 8fbc 8bbf aebd
00000080: 2fc0 5ebc d488 993c 0146 b7bc e522 313d
00000090: 0cbb 41bc c125 903d 43f7 433d 8193 9abd
000000a0: 0351 883d e953 02bd 8d9f 863d 3ee9 89bd
000000b0: 94a5 fe3c 46c2 9dbd a06a 4e3d 1364 3ebd
000000c0: 6b6e 90bc 9ee3 6cbd 0b43 9dbd 6126 db3c
000000d0: c295 81bd 1747 0f3c bc14 32bd 5c4f 17bd
000000e0: 16b4 8b3c 2d34 493c 9a1d 76ba 5be4 aabd
000000f0: 7116 493d 321d 903a f848 6b3d 1617 9fbc
0.020758597 -0.0019999878 0.03035488 -0.05290948 -0.01785388 -0.006191841 -0.07631614 0.011522851
0.09670795 0.061867367 0.08432811 0.018379925 0.024825329 -0.06784588 0.021972788 0.004096916
-0.069794476 -0.066698864 -0.03621363 -0.030986505 -0.043897986 -0.015678395 -0.082379684 -0.08178682
0.00031139943 0.0830737 -0.0020519418 -0.06610654 0.059641432 -0.037698865 -0.017528804 -0.08532628
-0.013595625 0.018742003 -0.022372248 0.04324617 -0.011824381 0.07038451 0.04784323 -0.075476654
0.06656077 -0.031818304 0.06573401 -0.067339405 0.031084813 -0.0770307 0.050394654 -0.046482157
-0.017630776 -0.05783426 -0.07678803 0.026751699 -0.06327392 0.0087449765 -0.043476805 -0.036940917
0.017053645 0.012280506 -0.0009388566 -0.083443366 0.049093667 0.0010995029 0.057442635 -0.019420188

embedding.features.18.weight f4 [72, 64, 3]
00000000: 5531 08bd 7d9c 59bd cc2f bebc d2db 8abd
00000010: da12 d63c dff9 403d dac5 81bd a2ae 46bc
00000020: 89b4 ed3c bbe4 78bd 945f 863c c820 61bd
00000030: 1c95 84bd e560 89bd c6b3 123d d6b2 843d
00000040: c12e adbb fd9e 07bd 80f6 293c 418d 1e3d
00000050: 76a1 703c 5d32 6f3d 7872 873b 36be 69bd
00000060: 44fa 61bc 312b 80bc b43f bc3d ac12 13bd
00000070: 5cc3 553d fa9d a53d 91b9 46bd c91c ac3c
00000080: 9afc 7a3d 2411 15bd 701a 213d ff88 93bd
00000090: 771c b6bd 13bc 98bd 8c7b 97bd b2cb 4e3d
000000a0: b498 b53c f073 5c3c fbe5 ec3c b7df e9bc
000000b0: 9fe5 6c3d 9de6 53bd dc93 21bd 549d 8ebc
000000c0: aa34 3b3d b49b e13b 6fa9 8b3c e0c6 9ebb
000000d0: e6ce 213d baf3 b03a d309 2fbc 5dd2 89bd
000000e0: 19cf 303c a9a0 89bd 9277 c23c 69bf 20bd
000000f0: 0fb2 18bc f548 bd3b 5705 723d 6d5f a9bc
00000100: 94f7 693d 435b 50bd 41ba 933b fe51 4bbd
00000110: 0cda 23bd 84af 53bb 16ae 3a3d 8650 8e3d
00000120: 98bf 2fbd d577 323d 94d3 603d 505c c93c
00000130: de3f 623d ed55 a73d 1b92 63bd c1cb 0a3c
00000140: 1a3b 2fbd 7d2e 383d 2a97 b0bc d0a6 e9bc
00000150: 52b6 f9bd 9c48 97bc 1bad ddbb 2478 a63b
00000160: 85ae 7abd 1235 ef3b 1738 913c ac86 b93b
00000170: 3a9c 9f3c 82a7 8f3d fdee b2bd b4a6 32bd
00000180: ecd8 4b3c 1c90 6ebd 7b2b 363c 0ed3 cebc
00000190: f57a aabb f0f1 87bd cdfa 01bc 72a3 9dbd
000001a0: 011e 103d 1b41 a8bc 81dc 89bd 7f50 8dbd
000001b0: 5722 743d cd08 203d 0bce 0b3d 8347 24bd
000001c0: b43c 24bd dc8f c8bd 181c cabc 2f8a 4ebb
000001d0: ecbd 9c3d 7f4f 113d b55a 2cbc 5da6 e83a
000001e0: 35cf 1a3b 6446 eebb 336e 22bd cd4d 73bd
000001f0: 16ac c1bd 205c 83bd 455b 8f3d 0bbb 4c3d
00000200: b4c7 043d 9867 2ebd f704 1e3c de51 023d
00000210: b8d9 81bb 2be8 213d 48b4 fe3b 31b9 5abd
00000220: 9444 fbbd 3d25 81bd f46a f3bc 1cd3 d6ba
00000230: 355a 45bd 4193 123d f5d6 de3b fbcc 5d3b
00000240: 9ace 243d 08a3 f83b 17d3 393d 1ed0 90bd
00000250: 1bdd 41bd 6e9c 2abd ba40 12bb b415 17bd
00000260: 9c3f cabc 5e57 9ebd 5cdc f1bd 2c69 593d
00000270: b792 023d c1d6 2dbd 5a1d ab3d f198 f4bc
00000280: dc63 01bd 191c ee3c 4936 e1bb d085 37bd
00000290: a735 043d a8e5 613c 4d82 91bd fef8 7fbc
000002a0: 4ce5 583b e74d 5b3c 7532 23bc bf11 58bd
000002b0: 5c64 5e3d 96e9 44bc 82e2 2ebd b7d1 fcbc
000002c0: 11fd c1bd 7b61 593d 6ab1 87bd 6d02 133d
000002d0: f93d cbba 869d 7ebd c7c3 b73d 78e9 27bd
000002e0: 86e2 0dbc 6108 0b3d b807 6c3c 2131 353d
000002f0: e68f 9cbc 08e8 aabd 67a2 a5bd ea2f 34bd
00000300: 8cf0 6cbd 3dc6 453d 9b9c ae3c 7c30 97bc
00000310: 6963 9b3d 4107 dcbc b306 953d 0360 243d
00000320: f5d3 55bd 1a80 303c 75d4 813d 4091 443b
00000330: 1374 8e3c c948 b03c 3e6c bd3c a663 c6bc
00000340: 925c 91bd e789 5bbd 1060 39bd d1aa c5bc
00000350: f769 083c 80ff 7d3d fda2 073d 6ac8 04bb
00000360: 2422 3cbc 1797 3a3d 37ba 9f3d 6568 b0bc
00000370: 3900 0f3d cec3 11bd 98d5 6abd 7dac 1a3c
00000380: 3e16 bb3c 741a babd 13c3 403b c823 1bbe
00000390: 3de6 16bd 30d8 a4b8 e225 8abd 05ad 603d
000003a0: 3041 263d 5091 c53b 047f cfbc 5993 41bd
000003b0: 1ece 913d 02ca 0c3d 9bbe 3c3d f88f fc3c
000003c0: f73d 673c e8d8 4a3b 4c49 9dbd 0057 c13a
000003d0: 2020 3b3d 9203 9dbd e826 053d 2526 99bc
000003e0: 000e 253c 1e8b 7cbd 0c61 893b eb3b 6cbc
000003f0: bbde 1bbd e812 15bd 4d8c dd3c 7bd3 91bd
-0.03325017 -0.053127754 -0.02321615 -0.06780209 0.026132036 0.047113296 -0.06336565 -0.012126597
0.02901675 -0.06076501 0.016402997 -0.054962903 -0.06473753 -0.06707934 0.035815977 0.06479423
-0.0052851145 -0.033110607 0.010373712 0.03870893 0.014686933 0.05839764 0.004133519 -0.057066165
-0.013792578 -0.015645595 0.09191838 -0.03590648 0.052188262 0.08086772 -0.048516814 0.02100982
0.061276056 -0.0363933 0.039331853 -0.07203864 -0.08892148 -0.07457747 -0.073966116 0.050487228
0.022167541 0.013455376 0.028918257 -0.028549058 0.05783617 -0.0517336 -0.03944765 -0.017409004
0.04570452 0.0068850163 0.017048566 -0.004845485 0.039503954 0.001350037 -0.010683495 -0.06729577
0.010791563 -0.067200966 0.023738656 -0.039245043 -0.009319796 0.0057765194 0.059087124 -0.020675385
0.057120875 -0.050868284 0.004508287 -0.04963874 -0.040002868 -0.003230066 0.045576178 0.069489524
-0.042907327 0.043571312 0.054889277 0.02458015 0.05523669 0.08170686 -0.05555926 0.00847143
-0.042780973 0.04496621 -0.021556456 -0.028521925 -0.12192978 -0.01846724 -0.0067650205 0.00508024
-0.06120159 0.0073000276 0.017726941 0.005661806 0.019483674 0.070143715 -0.0873699 -0.04361601
0.012441855 -0.058242902 0.011118765 -0.025247123 -0.005202646 -0.06637943 -0.007933331 -0.0769719
0.035184864 -0.020538857 -0.06731511 -0.06900119 0.05960306 0.039070893 0.034132045 -0.04010726
-0.040096954 -0.09793064 -0.0246716 -0.003151547 0.07653412 0.035476204 -0.010519673 0.0017749775
0.002362204 -0.007271575 -0.039655875 -0.05940037 -0.09456651 -0.06414056 0.0699983 0.049983066
0.032417014 -0.042579263 0.009644738 0.031816356 -0.0039627217 0.039528053 0.007772956 -0.05339927
-0.122689396 -0.06305931 -0.029714085 -0.001638982 -0.04818173 0.035784964 0.006800527 0.0033844102
0.040236093 0.007587794 0.045367327 -0.07070945 -0.047330003 -0.04165309 -0.0022316412 -0.036885932
-0.024688534 -0.07731508 -0.11809608 0.053078815 0.0318782 -0.042441133 0.08355208 -0.029858084
-0.031589374 0.029066132 -0.0068729264 -0.044805348 0.03227773 0.0137876645 -0.07104931 -0.015623329
0.0033095656 0.013385273 -0.00996076 -0.0527513 0.05429493 -0.012018582 -0.042696483 -0.030861719
-0.09472097 0.05307148 -0.06625636 0.035890985 -0.001550614 -0.062161945 0.089728884 -0.040994138
-0.008659964 0.033943538 0.014406137 0.044236306 -0.019111585 -0.08345038 -0.080876164 -0.043991007
-0.05784659 0.048284758 0.02131491 -0.018455736 0.0758732 -0.026858928 0.072766684 0.040130626
-0.05220409 0.010772729 0.06339351 0.0029993802 0.017389333 0.021519082 0.023122903 -0.024217438
-0.070977345 -0.05359831 -0.045257628 -0.024129303 0.008326045 0.062011242 0.033114422 -0.0020261058
-0.011482749 0.045554247 0.077991895 -0.021534154 0.03491232 -0.035587125 -0.057332605 0.0094405385
0.022837754 -0.09087077 0.0029413148 -0.15150368 -0.036840666 -7.8603975e-05 -0.06745507 0.054852504
0.04058951 0.0060292855 -0.02532912 -0.047259662 0.07119392 0.034372337 0.046080213 0.030830368
0.014113895 0.003095204 -0.07679996 0.001475066 0.045684934 -0.076666966 0.032507807 -0.018694947
0.010074139 -0.06165611 0.004192477 -0.014418582 -0.03805421 -0.036394984 0.02704444 -0.07120415

embedding.features.18.bias f4 [72]
00000000: 3af4 a93d 65fd cebc eeea bdbd fd2c 433d
00000010: 8186 513c 56d3 cdbd 5086 6b3d 4a95 323d
00000020: aa65 8b3c 4a4c 613d 29a9 9abd 9e90 4cbc
00000030: 96a1 803d 84f3 96bd 9062 833d bfc9 933d
00000040: 69e8 94bd 46e2 b93d 7ca8 5c3d 2861 823d
00000050: 87d7 fabc 223b 933d d004 5ebc 0f41 91bd
00000060: 2573 b2bd 682a 6f3d 1868 b03d 5fda 0dbd
00000070: becb a7bd 1fad a6bc 983d 6d3d b6e3 e3bc
00000080: bbde 28bd 9245 ab3c cc59 b53d 2935 89bd
00000090: 094d bc3c 3377 8dbd 0164 283d 4a14 a43c
000000a0: c7ae 8fbc 0d5e 513b 35f1 c4bc 7118 05bd
000000b0: 8367 473d 6f82 dabb 407c 43bd eac2 ec3c
000000c0: 36be a3bd f9e7 a33d 4791 fe3c 060b 32bd
000000d0: d20e 5f3d 683f 8e3d b541 2d3d 5346 b93c
000000e0: 50b7 b8bc 9700 07bd 613e 383d dbb0 973d
000000f0: 1c58 19bd a0d4 f63c cb93 573c 6e13 73bd
00000100: ff10 893d e5ad cd3c d150 fe3c 135e 82bc
00000110: e21a 3f3d 1ff2 6b3d c928 973c a402 d23c
0.08298536 -0.025267312 -0.09273325 0.047650326 0.012788416 -0.10050075 0.057501137 0.043599404
0.01701625 0.055004396 -0.07551796 -0.012485651 0.0628082 -0.07370666 0.06415284 0.072162144
-0.07270891 0.09076361 0.053871617 0.06366187 -0.03062035 0.07189013 -0.013550952 -0.07092487
-0.08713368 0.05839005 0.08613604 -0.034632083 -0.081931576 -0.020346222 0.05792007 -0.027818542
-0.041228037 0.020907197 0.08855018 -0.066995926 0.022985952 -0.06907501 0.041110996 0.020029206
-0.017539395 0.0031946928 -0.024040798 -0.032494012 0.0486827 -0.006668381 -0.047725916 0.028901536
-0.07995264 0.0800323 0.031075133 -0.043467544 0.054457493 0.069456875 0.04229899 0.022616541
-0.022548348 -0.032959547 0.044981364 0.074067794 -0.037437543 0.030130684 0.013157795 -0.0593447
0.06692695 0.025107333 0.031044396 -0.015913999 0.046656497 0.05760395 0.018452065 0.025636025
